best_model_cartpole.pth (torch, 376821 bytes, 26 tensors)

actor.latent_pi.0.weight f4 [128, 29]
0.13944863 0.30735967 0.36100763 0.30947053 -0.038830776 0.2075751 0.28750458 0.10998666
0.17131539 0.072092324 0.5078508 0.2482158 0.15080222 0.23188445 0.483288 0.22668567
0.16295192 0.31540984 0.3654788 0.12387036 -0.059343006 0.22106364 0.4119298 0.6410189
0.030219255 0.1076871 0.0022927793 0.10333799 0.06242207 -0.14251909 0.15163927 -0.8073895
0.035185445 0.07558187 -0.09258144 -0.5559963 -0.18172286 0.19742762 -0.03531582 -0.7394654
0.6331187 -0.0006196263 0.011526428 -0.42657566 0.24333006 -0.02958788 -0.0250037 -0.50891995
2.6220403 -0.06112849 -0.22261903 -0.2801884 -4.8868814 0.017060868 0.0025080193 -0.051602595
-0.18093194 -0.39976746 -0.0066565503 -0.24282376 -1.1515918 -0.3019897 -0.09537481 -0.19144978
-1.1460572 -0.36440822 0.00027101085 -0.21451631 -1.3387994 -0.757392 0.012607748 -0.042541903
-1.135187 -1.1217682 -0.33959454 -0.21159908 -1.5439817 -0.6478902 -0.089217074 0.09249008
-1.6098121 -2.2005436 0.09493262 0.114145875 0.10201149 0.24726099 0.11971727 -0.19354011
-0.56635946 -1.411444 -0.5252676 -0.1060738 -0.38036346 -1.478964 -0.73814034 -0.16678639
-0.34889242 -1.8565568 -1.0174212 -0.25586328 -0.6416945 -1.9005606 -0.84535867 -0.2177734
-0.5310955 -2.1060011 -1.3440771 -0.19146018 -0.66992855 -2.1470902 -2.191125 -0.2315969
-0.19882512 -0.14133199 -0.12336394 0.04858271 0.023452755 -0.0070403335 -2.1209524 -0.73724556
-0.005245369 0.104680374 -2.1374192 -0.8602807 -0.13356711 0.07727669 -2.2673109 -0.7497895
0.14994259 0.15980798 -2.143899 -0.57179433 -0.16225739 0.38055813 -2.4786901 -0.9314718
-0.15752758 0.13927299 -2.5200374 1.758579 0.23705117 0.056066126 0.3348056 0.21241409
0.6067407 -0.63996893 0.5805396 -0.49937412 0.92641294 -0.8016058 0.553651 -0.6750065
0.66911966 -0.7691326 0.65794057 -0.700169 1.0824078 -0.5417803 0.5313635 -0.55447817
0.58210766 -0.5435982 0.4154921 -0.54437315 0.8789179 -0.592222 0.31997773 -0.13156566
0.41551188 0.025501639 -0.13304028 0.20252272 -0.5005455 0.20544407 -0.09951597 0.008222792
-0.1820457 -0.030078305 0.15497091 -0.11821581 -0.022704374 -0.041341327 0.049158394 -0.042069368
0.018068206 1.4391075 0.08808716 0.061095495 0.0393567 1.050849 -0.009887876 0.006982062
0.36851344 4.0936804 0.008212907 0.3262991 0.74319065 -6.762627 0.07118888 0.024863776
0.44943836 0.14214803 1.9126791 0.15167795 0.40547383 0.809354 0.09545572 -0.07840521
0.37810698 0.9604968 0.5393988 0.18156615 0.2857947 0.8604239 0.079325594 0.28360155
0.56265044 1.1422571 0.26814893 0.04253454 0.3400907 1.2791756 -0.027428435 0.08570876
0.19548556 1.252836 1.0976039 0.2315902 -0.15678105 0.04752924 -0.21482313 0.12597904
-0.026687032 -0.31895968 -1.9771849 0.11150348 -0.12997232 -0.5897168 -2.2145648 -0.30516806
-0.06535945 -0.5108329 -2.0899796 -0.3439352 -0.18705383 -0.53679556 -2.190569 -0.49350008
-0.22191325 -0.33919075 -2.2148733 -1.3064812 -0.21184078 -0.52241 -2.463054 -0.5465139
00000000: 9fcb 0e3e 3f5e 9d3e fed5 b83e ec72 9e3e
00000010: 050d 1fbd 918e 543e cd33 933e b040 e13d
00000020: 4d6d 2f3e 24a5 933d 8302 023f 482c 7e3e
00000030: e66b 1a3e 1e73 6d3e 8671 f73e 4a20 683e
00000040: dedc 263e 667d a13e 0a20 bb3e beaf fd3d
00000050: a711 73bd 825e 623e 76e8 d23e d119 243f
00000060: 5f8e f73c 0e8b dc3d 7442 163b dea2 d33d
00000070: 49ae 7f3d 86f0 11be 5347 1b3e 14b1 4ebf
00000080: 9d1e 103d abca 9a3d 579b bdbd c655 0ebf
00000090: 8f15 3abe 772a 4a3e 52a7 10bd 9b4d 3dbf
000000a0: 1114 223f 6b6e 22ba 58d9 3c3c 2068 dabe
000000b0: 842b 793e 4862 f2bc 8fd4 ccbc 9448 02bf
000000c0: 82cf 2740 de61 7abd 3ef6 63be db74 8fbe
000000d0: 5561 9cc0 3cc3 8b3c 955d 243b 3e5d 53bd
000000e0: 3946 39be 52ae ccbe 311f dabb cba6 78be
000000f0: 5c67 93bf 659e 9abe de53 c3bd 690b 44be
00000100: 01b2 92bf b793 babe 7616 8e39 2aaa 5bbe
00000110: c75d abbf 71e4 41bf ba90 4e3c 6b40 2ebd
00000120: cf4d 91bf 1a96 8fbf 56df adbe 6ead 58be
00000130: 31a1 c5bf 22dc 25bf 71b7 b6bd 706b bd3d
00000140: 530e cebf b5d5 0cc0 096c c23d 50c5 e93d
00000150: 66eb d03d fc31 7d3e 542e f53d 612f 46be
00000160: effc 10bf 32aa b4bf f077 06bf 383d d9bd
00000170: 00bf c2be b14e bdbf c4f6 3cbf 0dca 2abe
00000180: 07a2 b2be a7a3 edbf dc3a 82bf 8300 83be
00000190: 1746 24bf 9245 f3bf 6d69 58bf fdff 5ebe
000001a0: e0f5 07bf b9c8 06c0 b80a acbf 230e 44be
000001b0: 7080 2bbf ed69 09c0 643b 0cc0 bd27 6dbe
000001c0: d098 4bbe 55b9 10be 3ca6 fcbd aafe 463d
000001d0: fe1f c03c 99b2 e6bb afbd 07c0 20bc 3cbf
000001e0: 58e1 abbb aa62 d63d 7acb 08c0 5b3b 5cbf
000001f0: d1c5 08be 3e43 9e3d 9f1b 11c0 34f2 3fbf
00000200: 8d8a 193e b4a4 233e a435 09c0 1d61 12bf
00000210: cd26 26be 84d8 c23e dca2 1ec0 f074 6ebf
00000220: e94e 21be 949d 0e3e 4b48 21c0 1e19 e13f
00000230: 8bbd 723e 98a5 653d a46b ab3e 1483 593e
00000240: 5c53 1b3f 01d5 23bf 3e9e 143f f7ad ffbe
00000250: 6629 6d3f 0a36 4dbf 12bc 0d3f 3acd 2cbf
00000260: 6d4b 2b3f e0e5 44bf cb6e 283f 473e 33bf
00000270: 578c 8a3f 1db2 0abf 7007 083f 48f2 0dbf
00000280: 0205 153f 4029 0bbf 61bb d43e 0a5c 0bbf
00000290: c300 613f dc9b 17bf 1fd4 a33e 26b9 06be
000002a0: f9bd d43e d0e8 d03c b63b 08be 1e62 4f3e
000002b0: c023 00bf ee5f 523e 07cf cbbd e4b8 063c
000002c0: 306a 3abe c766 f6bc b2b0 1e3e 211b f2bd
000002d0: 86fe b9bc 8655 29bd 505a 493d ee50 2cbd
000002e0: c603 943c ad34 b83f 0a67 b43d 453f 7a3d
000002f0: 7e34 213d 3882 863f c200 22bc c8c9 e43b
00000300: cbad bc3e 6eff 8240 6e8f 063c ad10 a73e
00000310: be41 3e3f 7167 d8c0 7acb 913d 1eaf cb3c
00000320: c91c e63e 418f 113e abd2 f43f 7751 1b3e
00000330: 449a cf3e d331 4f3f 4a7e c33d e992 a0bd
00000340: 3d97 c13e 1ee3 753f 0a16 0a3f 7aec 393e
00000350: af53 923e be44 5c3f 7575 a23d 3934 913e
00000360: dc09 103f 7b35 923f d14a 893e b338 2e3d
00000370: 5e20 ae3e 07bc a33f 99b1 e0bc 1388 af3d
00000380: 5e2d 483e ee5c a03f 497e 8c3f fb25 6d3e
00000390: 368b 20be 05ae 423d 98fa 5bbe a600 013e
000003a0: c39e dabc af4e a3be 6514 fdbf f05b e43d
000003b0: 7717 05be aef7 16bf 6ebb 0dc0 fd3e 9cbe
000003c0: 2ddb 85bd f2c5 02bf 3ac2 05c0 4618 b0be
000003d0: 0a8b 3fbe 6f6b 09bf 4832 0cc0 0bac fcbe
000003e0: 3a3d 63be 69aa adbe 7cc0 0dc0 c73a a7bf
000003f0: caec 58be a9bc 05bf ada2 1dc0 56e8 0bbf

actor.latent_pi.0.bias f4 [128]
-1.6502688 0.24771796 1.3135762 -0.8941934 -0.354163 0.11722217 0.18064176 1.6074109
2.0216587 -0.18814917 0.05461328 1.97772 -0.253453 0.06346735 0.4633899 0.93125373
-1.8669547 0.10768253 2.0294533 -0.51237094 -0.3129335 -0.05973081 -1.26447 -0.10556595
0.2610467 -0.16157722 -0.10477822 0.49090937 -0.21258552 -1.5205041 -0.05754941 -0.24090903
-0.13887756 -0.30896118 -2.3536093 -0.53217226 -0.2971231 1.8797445 1.5472612 -0.67459035
0.007869379 0.12229521 -0.33626723 0.24086107 1.9768277 -1.3253328 -0.042954143 0.2651814
0.26426235 -1.1361191 -0.056120142 0.8062763 1.563903 -0.28822052 0.6871348 0.49922386
2.3629377 -1.8323978 0.45815584 1.4940408 -0.39673188 -1.3361126 -0.8824963 0.59354717
1.3322223 0.15724213 1.3230702 -0.5130528 0.5567246 -1.7790784 -1.0438349 -1.7235733
1.2442782 -3.0022006 -0.17431165 0.96751046 -0.84817094 -0.35029262 -0.07099045 -0.13151447
0.3662935 -0.03316857 -0.44827667 0.7060315 1.5014598 -2.3876173 -0.04402885 2.1864505
1.2664629 -0.19034575 -0.16033722 -0.06689781 0.32215244 -1.6036059 -0.7114956 -0.53992087
1.5266031 0.9674898 0.8429131 2.423533 -0.6274304 -0.10055712 0.21764192 -0.16175477
1.7862252 -0.0060292226 -0.04326701 0.21283127 -0.44993564 -0.18910618 2.2273402 -0.6019039
-2.4913971 2.2572122 0.19158323 -0.28458807 0.70136297 0.17145926 1.3515675 0.7321952
1.975249 0.48584312 1.0095329 -0.4118887 -1.7255856 -0.12500216 0.6365962 -0.023794807
00000000: 023c d3bf c7a9 7d3e 4423 a83f dce9 64bf
00000010: da54 b5be 2d12 f03d 27fa 383e a4bf cd3f
00000020: db62 0140 2daa 40be 2db2 5f3d ee25 fd3f
00000030: 97c4 81be 2cfb 813d 7141 ed3e a566 6e3f
00000040: 5ff8 eebf a988 dc3d 90e2 0140 be2a 03bf
00000050: d238 a0be 4ba8 74bd 27da a1bf f632 d8bd
00000060: eaa7 853e 8074 25be f795 d6bd 7958 fb3e
00000070: 05b0 59be e19f c2bf eeb8 6bbd dbb0 76be
00000080: eb35 0ebe 2930 9ebe 89a1 16c0 713c 08bf
00000090: 8520 98be 789b f03f a80c c63f f4b1 2cbf
000000a0: 91ee 003c e975 fa3d 382b acbe 49a4 763e
000000b0: b108 fd3f 81a4 a9bf aff0 2fbd dbc5 873e
000000c0: 654d 873e 5a6c 91bf 3cde 65bd 2068 4e3f
000000d0: f92d c83f a491 93be 11e8 2f3f 459a ff3e
000000e0: 5f3a 1740 038c eabf 6793 ea3e bb3c bf3f
000000f0: 7120 cbbe bd05 abbf 47eb 61bf b5f2 173f
00000100: 4386 aa3f 1504 213e 5d5a a93f 6e57 03bf
00000110: 8185 0e3f d7b8 e3bf 629c 85bf 0d9e dcbf
00000120: 8244 9f3f 0e24 40c0 c17e 32be c4ae 773f
00000130: bb21 59bf 8e59 b3be 7163 91bd bbab 06be
00000140: d28a bb3e c4db 07bd 8584 e5be 7bbe 343f
00000150: d62f c03f b9ce 18c0 9857 34bd ceee 0b40
00000160: 751b a23f ffe9 42be 712f 24be b801 89bd
00000170: 2af1 a43e f542 cdbf 9324 36bf 4138 0abf
00000180: bb67 c33f 69ad 773f 27c9 573f 2a1b 1b40
00000190: 479f 20bf e4f0 cdbd 86dd 5e3e 0ba3 25be
000001a0: 07a3 e43f c990 c5bb c038 31bd 71f0 593e
000001b0: f75d e6be 0da5 41be be8c 0e40 6016 1abf
000001c0: 0d73 1fc0 2a76 1040 652e 443e 87b5 91be
000001d0: 868c 333f 0493 2f3e 2a00 ad3f 2571 3b3f
000001e0: f6d4 fc3f 6ec0 f83e 6038 813f 13e3 d2be
000001f0: fddf dcbf 9100 00be f8f7 223f 54ed c2bc

actor.latent_pi.2.weight f4 [128, 128]
-0.016351093 1.0461125 0.22777273 -0.26450622 -0.0173711 0.5586644 0.56249046 -0.57002795
0.032517914 -0.06615534 -0.08643783 -0.18548438 -0.5819658 -0.096763335 -0.86148185 -0.2543971
-0.10432987 -0.6740975 0.015562991 0.042705104 0.3081405 -0.68027097 -0.19942245 -0.38558775
0.33883983 -0.324335 -0.22842689 -0.62016624 -0.8376253 0.29903144 0.31035268 0.06517476
-0.3947006 -0.98336005 0.84128225 -0.2617024 -0.08163787 0.25672176 0.028884165 -0.0046561533
0.9427496 -0.1740263 -0.51954395 -0.16952825 0.73976177 0.36352316 -0.97287244 0.08375883
-0.46111852 0.19379541 -0.5634353 -0.31728584 -0.18700594 -0.86384714 -0.24617828 -0.34124514
-0.88828814 0.03037393 -0.882698 -0.04932365 0.23027167 0.5268044 -0.40441158 0.1211246
0.061534543 -0.16452196 0.11887981 0.28948277 0.45632192 0.14472118 0.07415183 0.08941529
-0.19641869 -0.8789265 0.3952715 -0.03820494 0.06852615 0.06949655 -0.3967705 -0.11106983
0.14868812 0.93642557 0.03658541 -0.88506836 0.16383605 -0.17641869 -0.49556106 -0.060655396
-0.25734186 -0.01802469 -0.70963925 0.24327424 -0.93908083 0.032195307 -0.017577954 0.80486876
0.04543616 -0.44685182 -0.14255384 0.07283947 -0.49897873 -0.07269566 -0.43093216 0.050870325
0.25068083 -0.29200748 0.41101888 0.5046466 -0.2064079 -0.56700945 0.17880273 0.1239872
0.5473187 -0.10542306 1.1524116 -0.774127 0.004120158 -0.11066874 -0.071453564 -0.23778959
-0.027368415 -0.5248927 -0.36579746 -0.5613018 0.1249402 -0.7459029 0.28943995 -0.33471045
0.021926887 -0.082375 0.003348259 -0.09377721 0.28440633 -0.083403036 -0.3903293 0.43021545
0.779653 0.28264296 0.039562676 -0.08480062 0.57612926 -0.33818585 0.14321849 0.13325408
-0.19554876 0.06601609 -0.016931921 0.2437951 -0.34514007 0.8079156 -0.36503536 0.36019328
-0.21577401 -0.3521638 0.083490595 -0.0055716117 0.2539203 0.093826674 0.22079875 0.20262061
-0.31242982 0.44350234 -0.47269124 -0.1509004 0.062324334 0.40183514 0.022382714 -0.37358853
-0.7627338 -0.33464286 -0.3992892 -0.15778601 -0.55615157 -0.29459184 0.41696298 -0.2287409
0.2794313 -0.12515098 0.7998456 -0.329781 0.16493179 0.316337 0.07644855 0.48874474
-0.19486128 -0.22548299 -0.14071064 -0.0013753166 -0.27106556 0.14125285 0.07406364 -0.40044308
0.3788365 0.36014128 0.23236968 0.112151355 0.3841592 -0.39958066 -0.43982375 -0.04397133
0.14162754 -0.040273458 -0.28886923 0.22951193 0.1918532 0.11271196 0.44818252 0.5146031
-0.0056896303 -0.2161643 0.52952236 0.14497615 0.085011646 0.109611414 0.63010895 0.020778012
-0.10970596 -0.020314774 -0.07939519 -0.29541057 -0.18993391 0.18998621 -0.5232343 0.013341109
0.108657695 -0.18851845 0.09822192 0.35984796 0.0062279296 0.75951606 0.26191303 0.1931708
0.32308298 0.24780731 -0.1949658 -0.8081764 -0.21332557 0.29592276 -1.1673359 -0.08916553
0.27969775 -0.25818145 -0.33015496 0.07641151 0.6914487 -0.44854745 0.14479575 0.07629683
-0.00846205 0.3762433 0.6243181 -0.16300684 0.07038096 -0.15487105 -0.26958165 -0.17389666
00000000: baf2 85bc 04e7 853f 413d 693e 5c6d 87be
00000010: d64d 8ebc a104 0f3f 60ff 0f3f 5aed 11bf
00000020: 8131 053d 737c 87bd 5106 b1bd 9eef 3dbe
00000030: b6fb 14bf db2b c6bd 138a 5cbf 5640 82be
00000040: e6aa d5bd a791 2cbf eafb 7e3c 8ceb 2e3d
00000050: 97c4 9d3e 3d26 2ebf 6635 4cbe c26b c5be
00000060: 6a7c ad3e 3d0f a6be bde8 69be 37c3 1ebf
00000070: 9d6e 56bf a61a 993e 8ce6 9e3e 587a 853d
00000080: 3216 cabe 7cbd 7bbf 465e 573f dbfd 85be
00000090: c131 a7bd 0971 833e 7c9e ec3c a592 98bb
000000a0: 0a58 713f f333 32be d500 05bf d098 2dbe
000000b0: 0761 3d3f b51f ba3e 2b0e 79bf c089 ab3d
000000c0: ba17 ecbe 4e72 463e 4c3d 10bf 4a73 a2be
000000d0: 7c7e 3fbe 1625 5dbf 2916 7cbe afb7 aebe
000000e0: da66 63bf c0d2 f83c 7ff8 61bf 9807 4abd
000000f0: 56cc 6b3e a7dc 063f 090f cfbe 2d10 f83d
00000100: a50b 7c3d 7278 28be 4277 f33d 1637 943e
00000110: 07a3 e93e ca31 143e eadc 973d 5d1f b73d
00000120: fb21 49be 5401 61bf 0761 ca3e c87c 1cbd
00000130: 7057 8c3d 3554 8e3d 8125 cbbe 9478 e3bd
00000140: b341 183e 96b9 6f3f 95da 153d d793 62bf
00000150: a3c4 273e 1aa7 34be 2eba fdbe cb71 78bd
00000160: 50c2 83be 84a8 93bc ebaa 35bf e21c 793e
00000170: 9a67 70bf 3adf 033d a4ff 8fbc e10b 4e3f
00000180: 441b 3a3d c3c9 e4be a2f9 11be dc2c 953d
00000190: 247a ffbe 76e1 94bd 24a3 dcbe 675d 503d
000001a0: 3d59 803e 0182 95be 1171 d23e 8530 013f
000001b0: 985c 53be 8827 11bf 1018 373e 00ed fd3d
000001c0: 141d 0c3f 0ce8 d7bd 3982 933f 302d 46bf
000001d0: 6402 873b 4ba6 e2bd 3f56 92bd 1d7f 73be
000001e0: ba33 e0bc 5e5f 06bf ce49 bbbe 7ab1 0fbf
000001f0: a6e0 ff3d 7ef3 3ebf 7931 943e 2b5f abbe
00000200: 04a0 b33c 39b4 a8bd 776e 5b3b 440e c0bd
00000210: b59d 913e 36cf aabd 3ed9 c7be 3345 dc3e
00000220: 5797 473f 94b6 903e 790c 223d f3ab adbd
00000230: 357d 133f b226 adbe dea7 123e c273 083e
00000240: ef3d 48be 7233 873d d0b4 8abc 6ca5 793e
00000250: 33b6 b0be 8fd3 4e3f eae5 babe 416b b83e
00000260: ddf3 5cbe d04e b4be 1efd aa3d 1192 b6bb
00000270: d701 823e 3328 c03d 1119 623e c77b 4f3e
00000280: cdf6 9fbe bd12 e33e 9604 f2be a285 1abe
00000290: cd47 7f3d 56bd cd3e f45b b73c ff46 bfbe
000002a0: 8642 43bf 4f56 abbe a26f ccbe a892 21be
000002b0: f35f 0ebf bed4 96be 2c7c d53e 0e3b 6abe
000002c0: 9f11 8f3e 9427 00be aec2 4c3f 0ed9 a8be
000002d0: e1e3 283e ecf6 a13e 0f91 9c3d c03c fa3e
000002e0: b789 47be 03e5 66be 7316 10be f843 b4ba
000002f0: 1bc9 8abe 96a4 103e adae 973d e006 cdbe
00000300: dcf6 c13e 7064 b83e 51f2 6d3e 9caf e53d
00000310: 84b0 c43e d695 ccbe 9430 e1be 481b 34bd
00000320: cf06 113e c8f5 24bd abe6 93be 2d05 6b3e
00000330: 2a75 443e 87d5 e63d 2e78 e53e 07bd 033f
00000340: 1470 babb 2d5a 5dbe c78e 073f a174 143e
00000350: 961a ae3d f37b e03d d24e 213f a636 aa3c
00000360: 85ad e0bd 2b6b a6bc f299 a2bd 0e40 97be
00000370: 097e 42be bf8b 423e aff2 05bf ab94 5a3c
00000380: ed87 de3d fb0a 41be 9328 c93d fe3d b83e
00000390: a913 cc3b a56f 423f 7719 863e 91ce 453e
000003a0: 226b a53e 33c1 7d3e 1da5 47be a6e4 4ebf
000003b0: 0572 5abe 3083 973e 436b 95bf 6b9c b6bd
000003c0: 8b34 8f3e 5c30 84be 120a a9be a37d 9c3d
000003d0: c802 313f 03a8 e5be 5645 143e 8341 9c3d
000003e0: 69a4 0abc f6a2 c03e 50d3 1f3f 44eb 26be
000003f0: e523 903d 8496 1ebe 9b06 8abe f711 32be

actor.latent_pi.2.bias f4 [128]
-0.17187713 -0.18480453 0.20582391 -0.13290395 0.02653579 0.39134327 0.18022627 -0.19904429
-0.06887292 0.17899558 0.091003485 0.6806263 0.1732763 -0.10508195 -0.10838816 -0.25893694
-0.2701034 0.057322394 0.43122944 0.018000726 0.29150245 -0.338791 0.67326343 -0.10309245
0.51988006 0.28239298 -0.049763694 0.18381071 -0.19551289 -0.14264563 0.13908872 -0.3224328
-0.117428996 -0.20342647 -0.1007817 -0.07769672 0.5229624 -0.07251985 -0.09784323 -0.61973965
-0.8523897 -0.13982679 -0.5153601 0.35443646 -0.30906284 -0.88570195 0.6188985 -0.055194717
0.033446 0.13855195 0.2698657 0.004015756 -0.6845492 0.20317914 0.029370062 -0.20117593
-0.45429587 0.2507876 0.35736188 -0.13265888 0.39450455 -0.2747833 0.6023671 -0.47837472
0.7450017 0.01974411 0.53946584 0.105465285 0.5676907 -0.061030574 0.3663636 -0.124154024
0.60372674 0.5405734 0.43645033 0.7551929 0.59951425 0.042295896 0.27332458 0.6126238
0.028251853 -0.56054413 -0.2265332 -0.15336531 0.26635227 -0.059883125 0.29255506 0.13512166
-0.52607155 -0.2043284 -0.299579 -0.23713586 -0.026389543 0.24035293 -0.120024 -0.031278413
-0.26554355 -0.5416851 -0.8906169 -0.5797266 0.3389523 0.18525776 -0.10609916 0.41117844
0.11074981 0.068338715 -0.23727597 -0.69721967 0.12935737 -0.3809854 -0.005477017 -0.34263203
-0.32265797 0.35224405 -0.32467753 0.19028226 0.14110297 0.34484002 0.6961507 -0.061974138
0.5337812 0.7579329 -0.28076857 0.2315224 0.29712257 -0.6588237 0.044793945 0.376241
00000000: 8f00 30be 663d 3dbe 81c3 523e f917 08be
00000010: 9661 d93c 255e c83e 3c8d 383e 44d2 4bbe
00000020: 3f0d 8dbd 9e4a 373e 0960 ba3d 863d 2e3f
00000030: 586f 313e 3535 d7bd 9dfa ddbd 6293 84be
00000040: fe4a 8abe e3ca 6a3d 1bca dc3e 4276 933c
00000050: cf3f 953e 0476 adbe fe5a 2c3f 2222 d3bd
00000060: dc16 053f d095 903e 04d5 4bbd e038 3c3e
00000070: 8834 48be b211 12be 466d 0e3e e915 a5be
00000080: 9d7e f0bd 074f 50be a366 cebd 751f 9fbd
00000090: dde0 053f 4a85 94bd 0862 c8bd 42a7 1ebf
000000a0: 3636 5abf c12e 0fbe a4ee 03bf b278 b53e
000000b0: 7c3d 9ebe 5dbd 62bf 2270 1e3f db13 62bd
000000c0: acfe 083d 90e0 0d3e d62b 8a3e 9a96 833b
000000d0: 9e3e 2fbf 310e 503e 7c99 f03c 1001 4ebe
000000e0: 7899 e8be 3b67 803e 23f8 b63e bbd7 07be
000000f0: 80fc c93e 66b0 8cbe bb34 1a3f 88ed f4be
00000100: 6eb8 3e3f 66be a13c 6f1a 0a3f 2ffe d73d
00000110: 2d54 113f 32fb 79bd 0394 bb3e 7744 febd
00000120: d68d 1a3f 0563 0a3f 6b76 df3e 5254 413f
00000130: c479 193f 763e 2d3d 33f1 8b3e ead4 1c3f
00000140: 6e70 e73c d27f 0fbf 52f8 67be cc0b 1dbe
00000150: 535f 883e 0248 75bd c7c9 953e 555d 0a3e
00000160: a0ac 06bf 773b 51be 6b62 99be bed3 72be
00000170: e22e d8bc 141f 763e 25cf f5bd cb1d 00bd
00000180: 53f5 87be e0ab 0abf 78ff 63bf f668 14bf
00000190: 288b ad3e 36b4 3d3e 844a d9bd fb85 d23e
000001a0: ccd0 e23d 2bf5 8b3d 79f8 72be fd7c 32bf
000001b0: 4276 043e 8510 c3be 8c78 b3bb 776d afbe
000001c0: 6d33 a5be 5559 b43e 223c a6be 5ad9 423e
000001d0: 4c7d 103e df8e b03e ef36 323f 98d8 7dbd
000001e0: e2a5 083f e407 423f e6c0 8fbe 3514 6d3e
000001f0: 7320 983e aca8 28bf db79 373d a9a2 c03e

actor.mu.weight f4 [1, 128]
-0.115894884 -0.0014069083 -0.09788553 -0.6848076 -0.24288228 -0.4453903 -0.09198028 -0.08142645
0.2560252 -0.0442117 -0.27731168 0.7881949 -0.4000255 -0.066343 -0.25709322 -0.073498294
0.44249713 0.07587918 1.5662843 0.048570026 0.7839038 -0.13168539 0.31047794 0.071954265
0.39446238 -0.17803326 -0.124567725 -0.52282953 -0.06405366 0.30750296 0.067027666 -0.25471652
0.0664399 -0.06445055 -0.29405233 -0.06288016 -0.8094687 0.09497888 0.093836635 0.36495256
-0.99615633 0.7627971 -0.28375563 0.33346498 -0.44001937 1.1382091 0.63044894 -0.077514395
0.00894622 -0.70808816 -0.2794949 -0.28033432 -0.55069226 0.022077618 -0.051553763 -0.27650097
0.083555706 0.00017092061 0.34683487 -0.24722788 -0.2253135 0.18487604 -0.50655365 -0.40592667
-0.7364025 -0.010681763 -0.6751415 0.05211757 0.021023363 0.54460603 -0.09037519 0.25410312
-0.6626955 -1.0509841 -0.3723508 -0.35185325 -0.605146 0.06676704 -0.0917863 0.15045413
0.05902231 0.08269928 -0.14653434 -0.13634406 0.3842974 -0.3258499 0.04139846 0.06820421
0.17656256 -0.17286442 -0.25896057 -0.33573672 -0.07869215 -0.6439163 -0.09751713 0.15632403
0.021556916 -0.250343 1.1410897 -0.5601949 0.24227263 -0.5761466 -0.1386042 -0.14338826
0.009050199 0.012601866 -0.3748429 -0.5618514 0.0012627674 -0.4515577 0.29724273 0.1335682
-0.32974693 -0.59800833 0.1729888 0.01198607 0.1071669 0.52351546 0.22068168 -0.01991163
0.405971 0.5918192 -0.10116765 -0.46039075 0.32123604 -0.41757578 -0.0990004 0.018712683
00000000: 4c5a edbd 0268 b8ba 3578 c8bd 8d4f 2fbf
00000010: 22b6 78be 330a e4be 2860 bcbd e9c2 a6bd
00000020: bc15 833e 5417 35bd ccfb 8dbe 24c7 493f
00000030: 24d0 ccbe d7de 87bd b9a1 83be 4686 96bd
00000040: fc8e e23e 8b66 9b3d 017c c83f 5df1 463d
00000050: ebad 483f 89d8 06be f7f6 9e3e c25c 933d
00000060: f9f6 c93e 5a4e 36be 5d1d ffbd 28d8 05bf
00000070: 912e 83bd 0771 9d3e cd45 893d 346a 82be
00000080: a411 883d a6fe 83bd 078e 96be 50c7 80bd
00000090: 5739 4fbf 4984 c23d 6c2d c03d 10db ba3e
000000a0: 1a04 7fbf ac46 433f 6b48 91be ecbb aa3e
000000b0: 384a e1be d6b0 913f 1a65 213f debf 9ebd
000000c0: 2b93 123c 4445 35bf f519 8fbe fb87 8fbe
000000d0: 2bfa 0cbf 1fdc b43c 0a2a 53bd 8991 8dbe
000000e0: 411f ab3d 2739 3339 5794 b13e 4e29 7dbe
000000f0: 95b8 66be 2550 3d3e 80ad 01bf 9fd5 cfbe
00000100: e084 3cbf 9002 2fbc 13d6 2cbf 3c79 553d
00000110: 3039 ac3c 4d6b 0b3f a116 b9bd ce19 823e
00000120: 6aa6 29bf a686 86bf c4a4 bebe 1c26 b4be
00000130: d9ea 1abf 28bd 883d 75fa bbbd a610 1a3e
00000140: 61c1 713d 3d5e a93d 190d 16be c79d 0bbe
00000150: a1c2 c43e ccd5 a6be 6e91 293d a6ae 8b3d
00000160: d1cc 343e 5f03 31be 7b96 84be afe5 abbe
00000170: 5a29 a1bd b3d7 24bf 10b7 c7bd 6813 203e
00000180: 2198 b03c f52c 80be 3a0f 923f ef68 0fbf
00000190: 5116 783e 587e 13bf 42ee 0dbe 5fd4 12be
000001a0: 4947 143c 0f78 4e3c 69eb bfbe 7ed5 0fbf
000001b0: 7183 a53a 9232 e7be 3330 983e 1ac6 083e
000001c0: 97d4 a8be 1317 19bf fa23 313e 3961 443c
000001d0: 527a db3d 1c05 063f 61fa 613e b71d a3bc
000001e0: 6edb cf3e 7781 173f fc30 cfbd 56b8 ebbe
000001f0: 0d79 a43e 7ecc d5be b9c0 cabd 574b 993c

actor.log_std.weight f4 [1, 128]
0.11456982 0.099186376 -0.09104857 -0.09670089 -0.175232 -0.01649859 -0.13690259 0.02689347
0.5062816 0.046283662 0.07453044 0.17682423 0.07917055 -0.019038357 0.057070665 0.30016255
0.15254653 0.12688462 -0.55649316 -0.1083085 0.13927217 0.010260917 0.16126022 0.03042502
-0.13156185 0.2674408 0.09591092 -0.26635996 -0.030041108 -0.49096403 -0.0029601944 0.19492899
-0.16637225 0.03968958 0.035925996 0.1689422 -0.48818457 0.35356715 0.01847252 -0.071826905
-0.004317953 -0.04131547 -0.23075165 0.0013517137 0.08288723 0.40107584 0.011419673 0.027342618
-0.18326482 -0.28340566 0.43217748 0.16053987 0.16881362 -0.021024974 -0.10477548 -0.0006564688
-0.06685236 -0.14158581 -0.016725166 0.1850447 -0.11618023 -0.083042674 -0.16724408 0.051773455
-0.3455453 0.071214154 -0.36359394 0.010434583 -0.14038211 -0.27437168 0.017391173 -0.69385284
-0.28527445 0.26328096 -0.1507011 -0.15210366 -0.2075072 0.18057004 -0.19618346 0.613557
-0.16960754 -0.017920727 0.07367549 0.021122802 -0.18974759 -0.13379711 0.29038587 0.001821918
0.043495744 -0.05546751 0.10842251 -0.067803256 -0.093113035 -0.37551472 0.09437017 0.18916649
0.043650955 0.14573087 0.4321633 0.0788942 -0.0053592785 0.47725204 -0.09202317 0.35146695
-0.20456524 0.04026005 0.13072802 0.12209402 -0.07581631 0.22283019 0.006483789 -0.11486849
-0.09248444 0.1601202 -0.070899986 0.13970044 0.09003061 -0.33092666 -0.1877338 0.2800485
-0.09130687 -0.17571397 -0.0068195756 0.037437785 -0.030518843 -0.083245665 0.0644501 0.51845425
00000000: 95a3 ea3d 3a22 cb3d ac77 babd 1e0b c6bd
00000010: 0470 33be 0d28 87bc 3130 0cbe b24f dc3c
00000020: ac9b 013f f093 3d3d 6aa3 983d 6911 353e
00000030: 2b24 a23d 54f6 9bbc eec2 693d e8ae 993e
00000040: 2835 1c3e 0bee 013e 5676 0ebf d9d0 ddbd
00000050: 5d9d 0e3e 681d 283c 6621 253e e43d f93c
00000060: 26b8 06be 00ee 883e f26c c43d 5560 88be
00000070: c518 f6bc a35f fbbe d2ff 41bb 779b 473e
00000080: 7d5d 2abe 8b91 223d 2327 133d 2fff 2c3e
00000090: 54f3 f9be c106 b53e af53 973c fc19 93bd
000000a0: 9d7d 8dbb 693a 29bd 294a 6cbe fc2b b13a
000000b0: c8c0 a93d d059 cd3e 9519 3b3c a0fd df3c
000000c0: c6a9 3bbe 8c1a 91be 5e46 dd3e 9064 243e
000000d0: 7add 2c3e 913c acbc 8794 d6bd e016 2cba
000000e0: e4e9 88bd dffb 10be 3703 89bc 5c7c 3d3e
000000f0: e7ef edbd 4712 aabd 0842 2bbe 6710 543d
00000100: 50eb b0be bad8 913d fc28 babe d0f5 2a3c
00000110: 54c0 0fbe 727a 8cbe ef77 8e3c 57a0 31bf
00000120: 7e0f 92be c3cc 863e 6451 1abe 10c1 1bbe
00000130: c47c 54be 5ae7 383e 51e4 48be 1212 1d3f
00000140: 99ad 2dbe 7dce 92bc 2de3 963d ba09 ad3c
00000150: 314d 42be 1c02 09be 75ad 943e 6ccd ee3a
00000160: 9828 323d e631 63bd 9f0c de3d 6fdc 8abd
00000170: 0cb2 bebd 7743 c0be 2645 c13d dcb4 413e
00000180: 58cb 323d 793a 153e 8244 dd3e 4893 a13d
00000190: e39c afbb 615a f43e a576 bcbd 7af3 b33e
000001a0: 8d79 51be b9e7 243d 91dd 053e 6e0c fa3d
000001b0: 9545 9bbd 992d 643e f775 d43b 2c40 ebbd
000001c0: 7b68 bdbd 8df6 233e 0334 91bd a20d 0f3e
000001d0: f861 b83d 386f a9be 4a3d 40be 8462 8f3e
000001e0: 19ff babd 5dee 33be bf76 dfbb 5d58 193d
000001f0: a702 fabc b47c aabd 6afe 833d 6bb9 043f

critic.qf0.0.weight f4 [128, 7]
0.41874647 1.1387703 2.5475519 0.076568335 -0.09096645 -0.9485015 0.20121992 -0.6519118
-0.41922852 1.9439336 0.13384725 -0.00711589 -1.6099972 0.10182979 -1.4109113 -0.2818413
3.0784926 0.22699125 0.051023673 0.119847044 -0.18777868 -0.47961232 -0.5085225 -2.8276467
-1.2499425 0.012928909 1.8424567 -0.17957081 0.27512565 0.22840348 2.0688815 0.9343
0.0029913262 1.9768924 -0.15578873 -0.56463057 -0.26103607 -2.2393463 -0.0725472 0.016103879
-1.146208 -0.1375686 -0.5415296 0.27715644 2.6337976 0.6620935 -0.03690547 -0.4972809
-0.20647278 -0.41404217 -0.22039199 -3.0210235 -0.1773058 0.017947445 0.36615765 0.14089581
0.5054936 0.4739844 1.8804892 0.4425476 -0.0023515585 0.20629118 -0.18179995 0.17349474
0.6842949 2.5351858 -0.29076633 -0.015727893 1.5625173 -0.11425891 -0.46239507 -0.24826132
2.4220057 0.43681794 -0.0219659 -0.34915233 -0.20981394 -0.41865337 -0.24047542 -1.8149387
-0.96342057 -0.019085579 1.7103202 -0.24263558 -0.39437976 -0.39213786 0.01590103 0.7279391
0.04982194 -1.446387 -0.86351436 0.32243255 -0.028371817 2.1516218 0.21796384 -0.0013627034
-0.94984233 0.119175434 -0.4210004 -0.83806354 -1.9203508 -0.30810395 0.038334202 -0.61516094
0.016779298 1.5605017 0.39723095 -2.7366881 -0.29183635 -0.016303597 -0.44243172 0.15526643
-0.35850215 -0.4045235 -2.6702778 -0.3258387 0.026463797 0.26131508 0.010403187 -0.52827865
-1.3717993 1.5119246 -0.16083193 0.21004213 1.1379164 -0.12801242 0.36684838 0.77884424
2.0889864 0.8805579 -0.0043511656 -1.1030886 0.1409532 0.3802104 1.6330905 2.3769977
0.38821968 0.011226083 -0.45093185 -0.0060922466 -0.57238346 -0.36722678 2.4744782 0.3299879
0.07323556 0.16856015 -0.20397106 0.7674598 0.5987719 2.9833984 0.55021805 -0.01930949
-0.34094867 -0.042436957 -1.094213 -0.29297835 2.513233 0.5975684 0.0035215581 0.7021657
0.0074507096 -0.5317287 -0.26556858 2.172041 0.24628776 0.007777928 -1.2708619 0.051353104
0.60686207 0.5409974 -2.522105 -0.32741034 -0.11828723 -1.2420523 0.113372065 -0.70823604
0.16088338 2.952184 -0.78814965 0.120561875 2.3814588 -0.023167478 -0.08954411 -0.7354389
1.8374184 -0.36705002 0.03756149 -0.584792 -0.009199084 -0.3430998 0.6026729 -2.0335906
0.026501337 -0.004014939 0.39347604 0.17176275 -0.12262617 -0.24533029 -2.3926508 0.26187542
0.018896464 -1.5132412 0.46385372 -0.45633164 -0.8663006 -2.143092 -0.7886672 0.0030793208
0.1375136 -0.058925316 0.06268249 0.38232872 -1.0317227 0.20253783 0.41368034 0.2475597
0.13885961 -0.27881825 -0.46235308 -1.7341219 0.011144415 0.05773055 2.051836 0.26772273
-0.60988647 0.25634718 -1.3713338 -0.23393825 -0.04913485 -0.11113386 0.41156328 -0.4447123
-0.056783978 2.672442 0.5778083 -0.029219188 -0.19304119 -0.14766766 0.5883781 0.9415894
-2.516288 -0.09269465 0.005532777 -1.0838501 0.0039716954 0.7953735 -0.49279293 -1.2690957
0.010365493 0.10721523 -0.4215597 -0.26965177 -0.59146035 0.7939196 -1.2873967 0.00578073
00000000: f065 d63e 3ac3 913f 170b 2340 dccf 9c3d
00000010: 9e4c babd ffd0 72bf 980c 4e3e b1e3 26bf
00000020: 1fa5 d6be d1d2 f83f 410f 093e 692c e9bb
00000030: 6314 cebf 238c d03d be98 b4bf 814d 90be
00000040: 0606 4540 6570 683e 33fe 503d 5e72 f53d
00000050: 0e49 40be bf8f f5be 882e 02bf 2af8 34c0
00000060: 1efe 9fbf c6d3 533c 9fd5 eb3f 69e1 37be
00000070: 45dd 8c3e 9ae2 693e 8e68 0440 492e 6f3f
00000080: 200a 443b cf0a fd3f 1587 1fbe a18b 10bf
00000090: 85a6 85be 7351 0fc0 a093 94bd 48ec 833c
000000a0: f2b6 92bf c8de 0cbe afa1 0abf 73e7 8d3e
000000b0: 2490 2840 f67e 293f 312a 17bd 9a9b febe
000000c0: 9a6d 53be 56fd d3be 70ae 61be 7358 41c0
000000d0: a78f 35be 8506 933c 0479 bb3e fe46 103e
000000e0: 0768 013f 15ae f23e dfb3 f03f 9995 e23e
000000f0: 9b1c 1abb ff3d 533e c429 3abe 9ba8 313e
00000100: f32d 2f3f 7c40 2240 53df 94be c8d7 80bc
00000110: 9100 c83f 9300 eabd 0cbf ecbe 3738 7ebe
00000120: 2402 1b40 9aa6 df3e d5f1 b3bc 18c4 b2be
00000130: 77d9 56be bc59 d6be 303f 76be e94f e8bf
00000140: bba2 76bf 5c59 9cbc c6eb da3f 7675 78be
00000150: 25ec c9be 4bc6 c8be e042 823c 385a 3a3f
00000160: 1712 4c3d 3623 b9bf 470f 5dbf e115 a53e
00000170: 036c e8bc 2cb4 0940 ea31 5f3e bd9c b2ba
00000180: de28 73bf 4012 f43d 5d8d d7be 558b 56bf
00000190: 0ece f5bf cdbf 9dbe 5304 1d3d 307b 1dbf
000001a0: bd74 893c 85be c73f db61 cb3e e625 2fc0
000001b0: 936b 95be 1f8f 85bc 6986 e2be 2afe 1e3e
000001c0: 988d b7be b41d cfbe d5e5 2ac0 55d4 a6be
000001d0: 9bca d83c 17cb 853e 2172 2a3c 453d 07bf
000001e0: 1f97 afbf bf86 c13f 20b1 24be 4915 573e
000001f0: 3fa7 913f b015 03be 8dd3 bb3e 5662 473f
00000200: f4b1 0540 3e6c 613f 3994 8ebb 0232 8dbf
00000210: 0956 103e f0aa c23e 1c09 d13f bb20 1840
00000220: bbc4 c63e 9bed 373c 8ae0 e6be 78a1 c7bb
00000230: b987 12bf 2605 bcbe da5d 1e40 2df4 a83e
00000240: 86fc 953d 089b 2c3e cadd 50be 3f78 443f
00000250: 1e49 193f 00f0 3e40 17db 0c3f f02e 9ebc
00000260: d390 aebe 60d2 2dbd 2c0f 8cbf 4201 96be
00000270: cfd8 2040 3efa 183f f1c9 663b 22c1 333f
00000280: 1525 f43b 5f1f 08bf 9bf8 87be b802 0b40
00000290: dc32 7c3e fddd fe3b 9aab a2bf a257 523d
000002a0: 505b 1b3f ce7e 0a3f 2b6a 21c0 54a2 a7be
000002b0: 9340 f2bd 92fb 9ebf 9d2f e83d f54e 35bf
000002c0: 9dbe 243e 95f0 3c40 2dc4 49bf 25e9 f63d
000002d0: d269 1840 b9c9 bdbc e762 b7bd b945 3cbf
000002e0: 8730 eb3f fbed bbbe 14da 193d eeb4 15bf
000002f0: c1b7 16bc c7aa afbe c548 1a3f 5926 02c0
00000300: 5519 d93c c08f 83bb b175 c93e 93e2 2f3e
00000310: 6e23 fbbd dd37 7bbe 3121 19c0 8914 863e
00000320: c2cc 9a3c e3b1 c1bf 3c7e ed3e 4da4 e9be
00000330: e0c5 5dbf 6b28 09c0 18e6 49bf 6ece 493b
00000340: 5dd0 0c3e ac5b 71bd ad5f 803d 97c0 c33e
00000350: 7d0f 84bf 1466 4f3e e9cd d33e 4a80 7d3e
00000360: 3731 0e3e 44c1 8ebe 8bb9 ecbe b5f7 ddbf
00000370: 1097 363c df76 6c3d 4851 0340 f412 893e
00000380: 8521 1cbf f03f 833e de87 afbf 828d 6fbe
00000390: a041 49bd 269a e3bd 6cb8 d23e 55b1 e3be
000003a0: 5196 68bd 4a09 2b40 3feb 133f 145d efbc
000003b0: 97ac 45be 3136 17be f29f 163f 010c 713f
000003c0: dd0a 21c0 b1d6 bdbd 4c4c b53b 9abb 8abf
000003d0: ff24 823b 999d 4b3f 5b4f fcbe ba71 a2bf
000003e0: 07d4 293c a993 db3d acd6 d7be cc0f 8abe
000003f0: f269 17bf 513e 4b3f 6ac9 a4bf 476c bd3b

critic.qf0.0.bias f4 [128]
0.71728104 1.0416199 0.04933705 0.44802454 -0.117269926 0.7060529 1.0194589 0.11339668
-0.71827406 0.80795175 0.86901736 0.842442 0.43739882 0.55476785 -0.9094539 -0.43915495
-0.32465467 -0.78758436 -0.37391892 -0.5717084 -0.99942243 0.46721762 0.5436635 0.67032325
0.5823516 0.1452473 -0.07706656 -0.44304085 -0.9085182 0.7526475 0.45420483 0.54315263
0.8197369 0.94858724 1.0032395 0.78096735 0.59103763 0.05434981 -1.099185 -0.10524924
0.62431794 0.2303347 0.68952894 -0.80587554 -0.33359936 0.82792354 -1.0399145 -0.5588019
0.876755 -0.6917657 -0.45613632 -0.4489017 0.6159551 -0.14534618 -0.96148 0.79135805
0.5142211 -0.48311865 0.21379562 -0.5153141 0.9015204 -0.7794831 1.0535382 -0.19327931
0.3084939 0.98784935 -0.40623668 -0.06023943 0.40857875 0.013640673 -0.8847468 0.7815509
-0.2691092 0.06886296 -0.6686961 0.59994066 0.95110303 -0.6563097 0.65052354 -0.951042
-0.54041624 0.58007133 -0.79525155 -0.8598737 -0.84745026 0.92053074 0.4838272 0.38418055
-0.6588486 0.6076989 -0.83917135 1.222243 0.7774704 -0.30906022 0.16386108 -0.828842
-0.4713103 0.15975799 -0.78268164 0.049753122 -0.44974715 -0.6303335 0.50111276 0.0061422596
-0.013903262 -0.119323954 -0.07565781 -0.6661822 -0.5027916 -0.76537514 0.67126024 -1.4386581
0.61361295 0.7416955 0.99751717 -0.5019072 0.72971827 -1.1088353 -0.106274925 0.24949522
-0.48966596 -0.9770357 0.26575747 0.25206578 0.9158644 0.7455903 1.3407124 0.5439178
00000000: bb9f 373f cd53 853f a615 4a3d 7963 e53e
00000010: 372b f0bd e2bf 343f a17d 823f 853c e83d
00000020: cfe0 37bf edd5 4e3f ec77 5e3f 47aa 573f
00000030: bdf2 df3e 4405 0e3f f9d1 68bf ebd8 e0be
00000040: 2339 a6be 219f 49bf 4d72 bfbe 7b5b 12bf
00000050: 26da 7fbf 2637 ef3e 882d 0b3f 4e9a 2b3f
00000060: ff14 153f b5bb 143e 13d5 9dbd 40d6 e2be
00000070: a694 68bf 82ad 403f 898d e83e 0d0c 0b3f
00000080: 47da 513f 9dd6 723f 276a 803f 7aed 473f
00000090: 3e4e 173f e89d 5e3d 18b2 8cbf ea8c d7bd
000000a0: 4dd3 1f3f dcdc 6b3e f884 303f dc4d 4ebf
000000b0: 89cd aabe ccf2 533f eb1b 85bf a40d 0fbf
000000c0: 0473 603f 8f17 31bf b38a e9be 72d6 e5be
000000d0: 3caf 1d3f a1d5 14be 8e23 76bf 7196 4a3f
000000e0: fea3 033f 545b f7be 3ded 5a3e a0eb 03bf
000000f0: 0aca 663f 348c 47bf 57da 863f 03eb 45be
00000100: eaf2 9d3e b2e3 7c3f 41fe cfbe 9fbd 76bd
00000110: 3c31 d13e 217d 5f3c c47e 62bf b813 483f
00000120: aec8 89be 0608 8d3d ab2f 2bbf b695 193f
00000130: 7d7b 733f ea03 28bf b688 263f 7d77 73bf
00000140: b858 0abf 8e7f 143f 9b95 4bbf af20 5cbf
00000150: 80f2 58bf e7a7 6b3f 33b8 f73e 50b3 c43e
00000160: 4daa 28bf 2892 1b3f efd3 56bf 7572 9c3f
00000170: 4d08 473f 243d 9ebe 33cb 273e fd2e 54bf
00000180: 954f f1be 9997 233e d35d 48bf eec9 4b3d
00000190: 4245 e6be 895d 21bf ed48 003f 0245 c93b
000001a0: 82ca 63bc 1e60 f4bd 7bf2 9abd eb8a 2abf
000001b0: f3b6 00bf a0ef 43bf b6d7 2b3f f325 b8bf
000001c0: bd15 1d3f c2df 3d3f 495d 7f3f fe7c 00bf
000001d0: d1ce 3a3f 51ee 8dbf aba6 d9bd ad7b 7f3e
000001e0: 7fb5 fabe 031f 7abf 5d11 883e c40e 813e
000001f0: 1776 6a3f 02df 3e3f 779c ab3f 323e 0b3f

critic.qf0.2.weight f4 [128, 128]
0.8004733 0.8832272 0.26202947 0.33857962 1.2977341 -0.19695245 0.45075327 -0.29006368
-0.043112073 0.3987019 0.4077855 0.67081743 0.10623985 0.8193149 -0.76167667 -0.19776647
-0.43299955 -0.9251238 0.22470483 -0.3891548 -0.15623729 0.59799504 0.26238775 0.8411833
-0.04411908 -0.00053179683 -0.17724596 -0.8097457 -0.12633832 -0.35963333 0.24965012 -0.6034895
0.018116701 0.29204065 0.7270946 0.46038544 -0.003181298 -0.12251736 -0.6455112 -0.5961247
-0.1386144 -0.44834656 0.35379076 -0.106610104 -1.3943682 0.040497612 -0.6235799 -0.49551567
0.45764974 0.1312914 0.39182857 -0.6076977 0.92452353 0.03676974 0.10119837 0.22431308
-0.7577662 -0.454233 -0.41274107 -0.4021456 0.53911996 -0.035921175 0.35543776 -0.29050225
-0.6579603 0.9873765 -0.24205399 0.48343372 0.22087984 0.2587511 0.13646252 0.15864824
-0.13435787 0.32317176 -0.3425331 -0.25172275 0.27059752 0.28984877 -0.81947213 -0.07009852
-0.6992384 0.18074505 0.14819512 -0.47993025 0.2483742 0.24880603 -0.27798915 0.15029998
-0.2938871 -0.14323974 -2.4720263 0.18990889 -0.15465295 0.3320266 -0.03215034 0.11883666
0.27052125 0.3774275 -0.89433295 0.121134564 0.24533498 -0.29014495 0.31352663 0.31224608
0.47625747 -0.13601695 -0.30857342 -0.19281693 0.2980149 0.6069912 0.8113299 -0.38680342
-0.85294044 1.1163212 0.0034850158 -0.099917576 0.16297306 -0.25396216 -0.925756 -0.24075805
-0.7338445 -0.85349154 0.28860757 0.27054062 0.1742569 -0.35398793 0.17070854 0.50248694
1.519465 -0.002546751 -0.14681718 0.7138964 0.6703616 0.20832823 0.11267642 0.08767891
-0.24632329 0.28208703 -0.089402795 0.95331866 0.20047954 0.37624928 -1.2509758 -0.0577989
-0.8901522 -0.40126532 -0.39522263 -1.3967552 0.11576968 0.44539523 -0.09015475 0.09501116
0.0065016374 0.25990373 -0.23447548 0.14082368 -0.34503043 0.02201608 0.20740457 -0.6878988
0.15181561 0.052858904 0.37382102 -0.15280576 -0.09240784 -0.29329184 -0.10403483 -0.44053876
-0.13072674 -0.17354767 0.24754566 -0.34909338 -0.89887965 0.24544458 -0.046354014 -0.08506532
-0.13029721 -0.66322136 0.053266328 -0.6265104 0.65408355 -0.23256087 0.09114171 -0.11394142
0.059041623 -0.15053387 -0.6533953 -0.41817108 -0.011073092 0.054399777 0.35894305 0.0068885046
-0.39882955 1.4708976 -0.32027048 0.7989279 -0.3108788 0.009669544 0.04307056 -0.10541065
0.21193354 0.3274513 0.1589537 0.14638975 0.3269725 0.93805504 -0.3055195 -0.5489637
-0.81863815 0.12646115 0.120038554 0.001917406 0.2990195 -0.15664196 0.19041085 0.14255477
-0.07848603 -0.5240755 -1.9679606 0.27742976 0.41090286 0.31005594 0.0048963875 0.23467407
0.17928354 0.26169798 -0.7953999 0.5768719 -0.0071317507 -0.1928702 -0.12336208 -0.2602819
-0.25895333 0.36847582 -0.3983903 -0.43186033 0.513307 0.35606992 0.99434936 -0.10470767
-0.7967814 0.725718 0.28877687 0.012652711 0.3799973 0.22020794 0.23841128 -0.0072885267
-0.6275164 -1.0184271 0.71612495 0.41255602 0.53493255 -0.055866707 -0.34226954 0.26579088
00000000: d1eb 4c3f 2e1b 623f ba28 863e 4f5a ad3e
00000010: 271c a63f e7ad 49be 22c9 e63e 3a83 94be
00000020: 4996 30bd a822 cc3e 43c9 d03e b1ba 2b3f
00000030: 4794 d93d 9fbe 513f 3efd 42bf 4b83 4abe
00000040: 1eb2 ddbe ead4 6cbf 0619 663e 4c3f c7be
00000050: abfc 1fbe 3416 193f b057 863e ca57 573f
00000060: 35b6 34bd 4868 0bba f77f 35be 7f4b 4fbf
00000070: d55e 01be dc21 b8be 48a4 7f3e 4a7e 1abf
00000080: 7a69 943c 5a86 953e df22 3a3f a4b7 eb3e
00000090: 537d 50bb 62ea fabd 3940 25bf a19b 18bf
000000a0: eff0 0dbe ae8d e5be 1024 b53e 6656 dabd
000000b0: a87a b2bf d3e0 253d efa2 1fbf 3bb4 fdbe
000000c0: 1151 ea3e 4171 063e c19d c83e 1492 1bbf
000000d0: 93ad 6c3f de9b 163d 1741 cf3d 54b2 653e
000000e0: f7fc 41bf 3a91 e8be cc52 d3be 07e6 cdbe
000000f0: c403 0a3f 1522 13bd f0fb b53e b6bc 94be
00000100: 1670 28bf b5c4 7c3f 00dd 77be a084 f73e
00000110: 532e 623e 067b 843e d5bc 0b3e af74 223e
00000120: 1c95 09be c576 a53e 8060 afbe cee1 80be
00000130: c28b 8a3e 0f67 943e edc8 51bf d08f 8fbd
00000140: 4a01 33bf 3b15 393e 76c0 173e 6bb9 f5be
00000150: ce55 7e3e 02c7 7e3e 9854 8ebe 3de8 193e
00000160: 5f78 96be 70ad 12be ae35 1ec0 7a77 423e
00000170: 585d 1ebe 64ff a93e 13b0 03bd a360 f33d
00000180: c381 8a3e 2d3e c13e 01f3 64bf 6615 f83d
00000190: 1839 7b3e e18d 94be 9086 a03e b8de 9f3e
000001a0: 05d8 f33e 0748 0bbe 56fd 9dbe cd71 45be
000001b0: 6995 983e c663 1b3f 51b3 4f3f 190b c6be
000001c0: 4e5a 5abf 9de3 8e3f dd64 643b 96a1 ccbd
000001d0: 69e2 263e 5407 82be 58fe 6cbf 4789 76be
000001e0: 3cdd 3bbf 6c7e 5abf 5fc4 933e 4d84 8a3e
000001f0: 6770 323e e83d b5be 38ce 2e3e fca2 003f
00000200: d47d c23f 64e7 26bb 3e57 16be eac1 363f
00000210: d19c 2b3f ff53 553e e5c2 e63d 0091 b33d
00000220: 2c3c 7cbe b66d 903e d018 b7bd b10c 743f
00000230: 824a 4d3e bfa3 c03e fa1f a0bf 8abe 6cbd
00000240: 04e1 63bf a672 cdbe 9f5a cabe e0c8 b2bf
00000250: a718 ed3d d80a e43e 0ea3 b8bd 3695 c23d
00000260: b00b d53b 1a12 853e 571a 70be 1534 103e
00000270: d4a7 b0be 115b b43c dd61 543e 231a 30bf
00000280: 8d75 1b3e 9482 583d 7865 bf3e 1d79 1cbe
00000290: 5240 bdbd 592a 96be 3710 d5bd 4c8e e1be
000002a0: 3bdd 05be 7bb6 31be 9c7c 7d3e 5ebc b2be
000002b0: fa1c 66bf d355 7b3e b5dd 3dbd ba36 aebd
000002c0: a26c 05be e0c8 29bf cb2d 5a3d fc62 20bf
000002d0: 0572 273f 7024 6ebe 81a8 ba3d 1f5a e9bd
000002e0: a1d5 713d 8d25 1abe ea44 27bf 851a d6be
000002f0: ea6b 35bc 4dd2 5e3d 62c7 b73e f7b8 e13b
00000300: 6333 ccbe 5f46 bc3f 7efa a3be 8a86 4c3f
00000310: 822b 9fbe 026d 1e3c c16a 303d 8ae1 d7bd
00000320: 1b05 593e b2a7 a73e c2c4 223e 32e7 153e
00000330: f168 a73e 6024 703f 0d6d 9cbe e388 0cbf
00000340: 4592 51bf 087f 013e c6d6 f53d 7851 fb3a
00000350: 1519 993e c066 20be 10fb 423e e1f9 113e
00000360: 49bd a0bd d029 06bf 22e6 fbbf 460b 8e3e
00000370: dc61 d23e a7bf 9e3e e071 a03b 664e 703e
00000380: 1b96 373e 47fd 853e 549f 4bbf e0ad 133f
00000390: 76b1 e9bb c47f 45be 42a5 fcbd ab43 85be
000003a0: 8895 84be dda8 bc3e d0f9 cbbe cc1c ddbe
000003b0: 1668 033f cc4e b63e ae8d 7e3f fa70 d6bd
000003c0: def9 4bbf a8c8 393f 90da 933e 514d 4f3c
000003d0: 028f c23e 317e 613e 1622 743e 98d4 eebb
000003e0: eaa4 20bf d25b 82bf f753 373f 8b3a d33e
000003f0: 57f1 083f 7dd4 64bd f43d afbe be15 883e

critic.qf0.2.bias f4 [128]
0.3526767 0.08827601 0.16071121 0.24332161 -0.10278267 0.2919227 0.32197368 1.0557388
-0.17828542 0.10278361 0.080187 -0.034903813 0.08769555 -0.022920953 -0.17799294 0.102914445
0.022388175 0.3162993 -0.15295997 -0.14097933 -0.072154135 0.23520146 0.038230967 0.10916043
-0.06736226 -0.100440234 0.11566185 0.06603429 -0.20896168 -1.1677095 -1.2367325 0.017346986
0.15749103 -0.12275498 0.28289604 1.1016014 -0.064182684 -0.19809699 -0.56907195 0.028957112
0.0804349 0.10524015 0.15569215 0.015090159 -0.1926353 -0.012634186 0.00992259 0.081103615
-1.6600577 -0.24926701 0.11405411 0.025111174 0.12064716 0.22100417 -0.04925733 0.16570877
0.105833724 0.046636194 0.05267546 -0.17285438 -0.14274117 0.25058958 -0.08218628 -0.006296558
0.08388273 -0.017743245 -0.028162887 -0.1869007 -0.11217694 -0.04672748 -0.78997254 -0.13227846
-0.12479734 -0.73131925 0.065857895 -0.031063171 0.042811662 -0.14758523 -0.108022295 0.0189263
0.021347275 -0.17660777 -0.008038159 0.11556527 -0.94295484 0.54505605 -1.0331903 0.14547059
0.9643771 -0.1398111 0.11140006 -0.07297592 -0.11265663 -1.0623379 0.9458344 -0.52573925
-0.11047371 0.016944911 -0.39738187 0.01187133 -0.009250149 -0.16927086 -0.19089383 -0.2269873
-0.043781605 0.065220065 0.12285626 -0.055978626 0.1751324 -0.014191647 -0.48458633 -0.07634671
-1.4811754 1.0827408 -0.078940935 0.0080873445 0.021186976 -0.08927917 -0.06459312 -0.04117513
0.023387017 -0.1319406 0.037986778 0.1476924 -0.052684594 0.30153838 0.3379948 0.018059017
00000000: 0a92 b43e 0dca b43d 7b91 243e 4d29 793e
00000010: b87f d2bd e476 953e bcd9 a43e 7322 873f
00000020: 7490 36be 3780 d23d 1539 a43d 4df7 0ebd
00000030: b999 b33d b9c4 bbbc c843 36be cfc4 d23d
00000040: 6867 b73c fbf1 a13e 8aa1 1cbe e35c 10be
00000050: 8cc5 93bd a7d8 703e 1398 1c3d 818f df3d
00000060: 39f5 89bd 9cb3 cdbd 1fe0 ec3d fc3c 873d
00000070: 0dfa 55be 8177 95bf 404d 9ebf 441b 8e3c
00000080: 5445 213e f766 fbbd c0d7 903e 4601 8d3f
00000090: 3672 83bd f0d9 4abe b3ae 11bf 7737 ed3c
000000a0: 0ebb a43d 2688 d73d c36d 1f3e b73c 773c
000000b0: 3042 45be 9eff 4ebc 5c92 223c a719 a63d
000000c0: c57c d4bf da3f 7fbe 3495 e93d f3b5 cd3c
000000d0: dc15 f73d eb4e 623e 0ec2 49bd 8faf 293e
000000e0: 5abf d83d 9805 3f3d 39c2 573d bd00 31be
000000f0: be2a 12be 474d 803e 4851 a8bd 5b53 cebb
00000100: b5ca ab3d 485a 91bc dbb5 e6bc e662 3fbe
00000110: 06bd e5bd 5065 3fbd a43b 4abf 0174 07be
00000120: bf95 ffbd bd37 3bbf 81e0 863d 3178 febc
00000130: 485b 2f3d 9520 17be cb3a ddbd 540b 9b3c
00000140: 7be0 ae3c abd8 34be 7cb2 03bc 7cad ec3d
00000150: 7d65 71bf cb88 0b3f 943f 84bf 3ef6 143e
00000160: 6be1 763f a42a 0fbe b725 e43d 6674 95bd
00000170: 85b8 e6bd b0fa 87bf 3422 723f d996 06bf
00000180: 0a40 e2bd 0ed0 8a3c a375 cbbe f87f 423c
00000190: f08d 17bc 5755 2dbe ac79 43be 5c6f 68be
000001a0: 5754 33bd 1992 853d 109c fb3d d849 65bd
000001b0: e855 333e 1584 68bc b31b f8be aa5b 9cbd
000001c0: 2897 bdbf 4097 8a3f c9ab a1bd c880 043c
000001d0: 4f90 ad3c ffd7 b6bd 6649 84bd 41a7 28bd
000001e0: 2196 bf3c 701b 07be 0698 1b3d ad3c 173e
000001f0: cdcb 57bd 3d63 9a3e a80d ad3e 81f0 933c

critic.qf0.4.weight f4 [1, 128]
1.0186076 0.9409651 0.87731975 1.5579973 1.2070885 1.6664672 0.94509554 -2.4883022
0.9787213 -1.0830152 -1.4025714 1.1004221 -1.6186976 1.0817522 1.6279871 -1.0873499
-0.8076828 1.1084787 -1.5745151 1.0872076 -1.15424 -1.0159867 1.6086767 -1.2099614
1.5114955 -1.5481144 -0.27691668 -2.0952907 -1.2276667 3.1481671 2.2641451 -1.0400338
-1.5735528 -0.8221105 -1.1562485 -2.2666354 -1.4824482 1.536426 -2.166237 -1.6681474
1.0245445 1.1108944 1.5597552 -1.0408192 1.6405205 0.32025778 -0.8254842 -1.3979484
2.2552915 -0.8738316 1.0888826 -1.0431871 1.2887784 -0.121822946 1.2766834 -1.4927698
-1.110717 1.5730674 0.4660815 -1.4144769 -1.1582155 1.0935239 1.1024439 -1.6967788
-1.7744943 0.73864913 0.165987 -0.9800429 -0.9707056 -1.1129268 2.6334877 1.9252372
0.90799093 0.6215617 -0.12427262 0.23607472 -1.1898615 1.5379809 -0.36457506 1.1429043
-1.3969812 0.87860864 -1.1666834 -2.0627484 2.5918128 -0.90260816 2.3362954 0.24174586
-2.8989232 -1.0168349 1.9659636 1.4058522 1.7323872 1.4018221 -1.70788 0.8036353
-0.7089275 1.0490799 -0.65215737 2.0590382 0.7154324 1.3720278 -0.82153165 -0.72719914
1.9126614 0.87987864 0.92741686 -1.5359182 1.0528238 -1.1713921 -0.010516672 0.7338904
2.3018818 -2.3180668 1.2934108 1.325947 -1.0833523 1.8447655 1.141091 0.37251326
-0.90064514 -0.6997308 -0.27525204 -1.3117932 -0.8694721 1.4516606 2.1008673 0.23052785
00000000: bc61 823f 17e3 703f 0798 603f 756c c73f
00000010: e081 9a3f cc4e d53f c8f1 713f 5840 1fc0
00000020: 7b8d 7a3f 3ea0 8abf 7687 b3bf a2da 8c3f
00000030: 7c31 cfbf db76 8a3f e261 d03f 482e 8bbf
00000040: 4dc4 4ebf a1e2 8d3f b689 c9bf 9e29 8b3f
00000050: 23be 93bf da0b 82bf 1ee9 cd3f 04e0 9abf
00000060: af78 c13f 9d28 c6bf 06c8 8dbe 3e19 06c0
00000070: 2f24 9dbf 927b 4940 c1e7 1040 d41f 85bf
00000080: 2e6a c9bf d575 52bf f3ff 93bf 8e10 11c0
00000090: ddc0 bdbf 9ba9 c43f a1a3 0ac0 db85 d5bf
000000a0: 4624 833f ca31 8e3f 0fa6 c73f 9039 85bf
000000b0: 93fc d13f d4f8 a33e ef52 53bf f9ef b2bf
000000c0: b256 1040 6eb3 5fbf 8160 8b3f 2887 85bf
000000d0: b1f6 a43f 4f7e f9bd 5d6a a33f 1513 bfbf
000000e0: fa2b 8ebf 465a c93f 3ca2 ee3e 940d b5bf
000000f0: 6840 94bf 97f8 8b3f e21c 8d3f 0c30 d9bf
00000100: a122 e3bf 1c18 3d3f 7ff8 293e 17e4 7abf
00000110: 2a80 78bf 6374 8ebf 108b 2840 2c6e f63f
00000120: 1872 683f ab1e 1f3f a582 febd 92bd 713e
00000130: 624d 98bf 8fdc c43f 95a9 babe b04a 923f
00000140: 48d0 b2bf 7fec 603f e255 95bf 1204 04c0
00000150: 43e0 2540 5411 67bf dd85 1540 3a8c 773e
00000160: f587 39c0 a527 82bf b2a4 fb3f f7f2 b33f
00000170: ddbe dd3f e86e b33f d09b dabf 0bbb 4d3f
00000180: 467c 35bf 4048 863f c9f3 26bf 48c7 0340
00000190: 9426 373f 9b9e af3f e64f 52bf b929 3abf
000001a0: 17d2 f43f ba3f 613f 316b 6d3f f898 c4bf
000001b0: eec2 863f 2df0 95bf 1f4e 2cbc 3ee0 3b3f
000001c0: 0852 1340 355b 14c0 7c8e a53f a2b8 a93f
000001d0: 4aab 8abf 4721 ec3f 450f 923f 0fba be3e
000001e0: ae90 66bf 8f21 33bf d6ed 8cbe d7e8 a7bf
000001f0: b995 5ebf 04d0 b93f 9c74 0640 7e0f 6c3e
