best_model_hopper.pth (torch, 436213 bytes, 28 tensors)

actor.latent_pi.0.weight f4 [128, 81]
0	0x3e9aea06	0.3025667
1	0x3faf0134	1.3672242
2	0xbfbefb46	-1.4920433
3	0xbf24339f	-0.6414127
4	0xbe49b3b4	-0.19697458
5	0xbe9c1157	-0.3048198
6	0xbf4a34f5	-0.78987056
7	0x3f3da5c1	0.74081045
8	0xbf0a66c9	-0.5406309
9	0xbeab9ed2	-0.33519608
10	0xbdc19671	-0.094525225
11	0x3e72d040	0.23712254
12	0x3fc06e3f	1.5033644
13	0xbfbd602f	-1.4794978
14	0xbf2fe3c9	-0.6870695
15	0xbe6780b0	-0.22607684
16	0xbc1ac87f	-0.009447216
17	0x3dd002de	0.10156797
18	0x3f5a11cf	0.85183424
19	0xbf2d1b26	-0.6761955
20	0xbe9b9272	-0.30385166
21	0xbe0a1dca	-0.13487926
22	0x3e320faf	0.17388795
23	0x3fd1c105	1.638703
24	0xbfcfa231	-1.6221372
25	0xbf4c0e73	-0.7970955
26	0xbe8b04b4	-0.27152026
27	0xbe551e0a	-0.2081224
28	0x3e887963	0.2665511
29	0x3f53cc1a	0.8273331
30	0xbf2dc0d8	-0.6787238
31	0xbeb63150	-0.35584497
32	0xbd32d96e	-0.04366439
33	0x3e72c039	0.2370614
34	0x3fcf1b8a	1.6180279
35	0xbfc175c3	-1.5114063
36	0xbf3d3f20	-0.73924446
37	0xbe3c1205	-0.18366249
38	0xbef6e1ac	-0.4821905
39	0xbef1864a	-0.47172767
40	0x3f8406ac	1.0314536
41	0xbf46c711	-0.776475
42	0xbec6b80b	-0.3881229
43	0x3ba0e9ee	0.004910699
44	0x3e8e731b	0.27822194
45	0x3fd43c4d	1.6580902
46	0xbfc7c936	-1.560828
47	0xbf4519e7	-0.7699265
48	0xbe6a794c	-0.22897834
49	0xbf8e5586	-1.111985
50	0xbf51bfaf	-0.8193311
51	0x3f8d48f1	1.1037885
52	0xbf317bdb	-0.69329613
53	0xbeffd895	-0.49969926
54	0xbdf54e1d	-0.119777896
55	0x3e848f9d	0.25890818
56	0x3fe01971	1.7507764
57	0xbfced863	-1.6159786
58	0xbf3be232	-0.7339202
59	0xbebd3c9c	-0.36960304
60	0xc00b7921	-2.1792681
61	0x3f71b1a4	0.94411683
62	0xbdc3a47a	-0.09552856
63	0x3d997182	0.07492353
64	0xbe616c60	-0.22013998
65	0x3df70e83	0.12063315
66	0xbd4f78d7	-0.05065235
67	0xbda8541e	-0.08219169
68	0xbe0e7f7a	-0.13915816
69	0xbd57f3fe	-0.052722923
70	0x3e2b758b	0.16744058
71	0xbe15f999	-0.14645995
72	0x3c334ccf	0.010943606
73	0x3e437fc3	0.19091706
74	0xbd3ea578	-0.046544522
75	0xbda72c66	-0.08162765
76	0x3d6b403c	0.057434306
77	0x3d2509bc	0.040292487
78	0x3d2bb9f5	0.04192539
79	0xbd307a28	-0.043085247
80	0xbd9f0655	-0.077648796
81	0xbfaac930	-1.3342648
82	0x3f801d32	1.000891
83	0xbf8837bf	-1.0642012
84	0xbf3ab09f	-0.7292575
85	0x3e9850ac	0.29749048
86	0xbe7c58a2	-0.24643186
87	0x3f5fec9c	0.8747041
88	0x3e38d66f	0.1805055
89	0xbe99a242	-0.30006605
90	0xbdb436cb	-0.087995134
91	0x3ca2963e	0.019847032
92	0xbf98b669	-1.1930667
93	0x3f87641d	1.0577427
94	0xbf8c177f	-1.094467
95	0xbf657485	-0.8963092
96	0x3edf07e7	0.43560717
97	0xbe04e1cd	-0.12976761
98	0x3f3b7dbe	0.7323874
99	0x3e48c15d	0.19605012
100	0xbeb28a33	-0.34871063
101	0xbde753aa	-0.112952545
102	0xbb2de9d7	-0.0026537084
103	0xbfabb338	-1.3414068
104	0x3f818cd4	1.0121102
105	0xbf8b006a	-1.0859501
106	0xbf7c8ecc	-0.9865539
107	0x3e91816f	0.28419062
108	0xbd6708e8	-0.056404978
109	0x3f442b40	0.76628494
110	0x3ec74b41	0.38924602
111	0xbe95394e	-0.29145283
112	0xbe184248	-0.14869034
113	0x3a2884db	0.00064284884
114	0xbfab3c47	-1.337777
115	0x3f7b71fc	0.982208
116	0xbf7d11f3	-0.98855513
117	0xbf866fff	-1.0502928
118	0x3ea2ad36	0.31772774
119	0x3b09ab67	0.0021006705
120	0x3e440676	0.1914309
121	0x3e87822e	0.26466507
122	0xbe321c98	-0.1739372
123	0xbdd53a3a	-0.104114965
124	0x3dc59488	0.09647471
125	0xbfabc697	-1.341998
126	0x3f764cfd	0.96211225
127	0xbf8a871f	-1.0822486
128	0xbf715a1c	-0.9427812
129	0x3ebd4251	0.36964658
130	0x3e8c60ef	0.27417704
131	0xbf9d2058	-1.2275496
132	0xbe05b1e4	-0.13056141
133	0x3dce5d8f	0.10076439
134	0xbe1562c9	-0.14588465
135	0xbe0efce1	-0.13963653
136	0xbfb2bc07	-1.3963631
137	0x3f4b803f	0.79492563
138	0xbf720022	-0.9453145
139	0xbf99e4fe	-1.2023008
140	0x3ecd7f88	0.4013636
141	0x3f666a05	0.9000552
142	0xc03513ab	-2.8293254
143	0x3e09bf83	0.13451962
144	0xbb09a7ac	-0.0021004481
145	0x3d0178cf	0.031609353
146	0x3d7a7877	0.06115004
147	0xbdd8e003	-0.10589602
148	0x3cdae890	0.026722223
149	0x3dc51248	0.096226275
150	0xbea61b63	-0.3244277
151	0xbc84fdf6	-0.01623438
152	0x3cdd60e3	0.027023738
153	0xbe83aa34	-0.25715792
154	0xbd914cf3	-0.07094755
155	0x3da548b6	0.08070509
156	0xbe6589c0	-0.22415829
157	0xbd06c877	-0.032906022
158	0x3e1bff82	0.15234187
159	0xbe4038e2	-0.18771699
160	0xbe964fdf	-0.29357812
161	0x3bd8dbb5	0.006617988
162	0x3ee6f43a	0.45108205
163	0xbf8cbb9d	-1.0994755
164	0x3f1797ff	0.592163
165	0xbfcf8782	-1.6213229
166	0xbe9c05b5	-0.30473104
167	0xbf290eb0	-0.66038036
168	0xbd472a48	-0.048624307
169	0x3b66ed4a	0.003523665
170	0x3e94c2c2	0.29054838
171	0xbe2eaa99	-0.17057265
172	0x3c2fcc75	0.010729899
173	0x3ed25f55	0.41088358
174	0xbf8d3243	-1.1030964
175	0x3f05299b	0.5201661
176	0xbfd4ceed	-1.6625649
177	0xbe49c7aa	-0.19705072
178	0xbf32842f	-0.69732946
179	0x3ec315c7	0.38102552
180	0xbec5e0d3	-0.3864809
181	0x3e8db1ef	0.27674815
182	0x3c77c192	0.015121834
183	0xbd690846	-0.056892656
184	0x3f01354f	0.5047197
185	0xbf8580b4	-1.0429902
186	0x3f19fa11	0.60147196
187	0xbfc3aa3c	-1.5286326
188	0xbe7530fd	-0.23944469
189	0xbf2df015	-0.6794446
190	0x3f80b470	1.0055065
191	0xbecfe66a	-0.4060548
192	0x3e6f37da	0.2336115
193	0x3e31e58b	0.1737272
194	0xbd4230cb	-0.047409814
195	0x3edde763	0.43340597
196	0xbf9672c8	-1.1753778
197	0x3f0ae2c0	0.54252243
198	0xbfafcb9b	-1.373401
199	0xbe1b6021	-0.15173389
200	0xbee448e2	-0.44586855
201	0x3f927c8a	1.1444256
202	0xbe6654ad	-0.22493239
203	0x3d51b174	0.051194623
204	0x3e030200	0.12793732
205	0xbd903f2f	-0.07043301
206	0x3ecde91d	0.40216914
207	0xbfaedad8	-1.3660536
208	0x3efbd717	0.49187538
209	0xbfa00265	-1.2500731
210	0xbdb30622	-0.08741404
211	0x3e158f78	0.1460551
212	0x3f364b1a	0.71208346
213	0xbeba4e87	-0.36388037
214	0x3e6283bc	0.22120565
215	0x3ea515f6	0.32243317
216	0x3df7391c	0.120714396
217	0x3ee63244	0.44960225
218	0xbfb3c324	-1.4043927
219	0x3eeda254	0.4641291
220	0xbf9bade9	-1.2162448
221	0xbc6ef795	-0.014585395
222	0x3f2c3a3d	0.67276365
223	0x3f0989e8	0.53726053
224	0xbf89e1d8	-1.0772047
225	0x3f0889f3	0.53335494
226	0x3e9545b8	0.29154754
227	0x3f3a9bd5	0.7289403
228	0x3e284dce	0.1643593
229	0x3dd37f6c	0.10327038
230	0x3e98420a	0.29737884
231	0x3e8c629c	0.27418983
232	0xbe4d9468	-0.20076144
233	0x3e981740	0.29705238
234	0x3dd27daa	0.10277875
235	0xbd64b8c6	-0.055840276
236	0x3e1daf56	0.15398917
237	0x3da38115	0.07983605
238	0xbd489e6a	-0.0489792
239	0x3e88d78d	0.26726952
240	0x3d8c62e6	0.06854801
241	0x3e4567cd	0.19277878
242	0x3f33efd2	0.7028781
243	0xbf7c04c4	-0.9844477
244	0x3edf48bb	0.43610176
245	0xbf514d03	-0.81758136
246	0xbfac4cac	-1.3460898
247	0xbf80aa43	-1.005196
248	0x3e361f30	0.17785335
249	0x3f0ca65b	0.5494134
250	0xbe50026c	-0.20313424
251	0xbd465968	-0.04842511
252	0xbe25a25a	-0.16175213
253	0xbdba6cf7	-0.09102815
254	0xbf7499ea	-0.95547354
255	0x3ebca383	0.368435

actor.latent_pi.0.bias f4 [128]
0	0xbf7f0255	-0.99612933
1	0x40549f45	3.322221
2	0x3f84da45	1.037911
3	0xbfc8fbc1	-1.5701829
4	0xbf71b1e6	-0.94412076
5	0x3e9c94a7	0.30582163
6	0xbf5d64b4	-0.86481786
7	0xbf85710a	-1.0425122
8	0xc01c41a0	-2.4415054
9	0xc09cac6f	-4.896049
10	0x40577f1c	3.3671331
11	0xbf25f2e2	-0.64823735
12	0xbf9cdb6e	-1.2254465
13	0xc0b78e6f	-5.736137
14	0xbdd0c185	-0.10193161
15	0xc0b0d38c	-5.5258236
16	0xbef8067c	-0.48442447
17	0x404a2ab8	3.1588573
18	0x3f1e602a	0.61865485
19	0x4013a2d7	2.306814
20	0xbffed274	-1.9907975
21	0x3fd9dd51	1.7020665
22	0xc104a989	-8.29139
23	0x3f1aa0e4	0.6040175
24	0xbf8277d6	-1.0192821
25	0xbde23dc6	-0.110469386
26	0x3f12c9a3	0.57338923
27	0xc0013262	-2.0187001
28	0xbfc841da	-1.5645096
29	0xc05fe8bb	-3.4985797
30	0x3f8f572b	1.1198477
31	0xbf9f8d7d	-1.2465054
32	0x3fc275bb	1.5192178
33	0xbf348af5	-0.7052453
34	0xbfece800	-1.8508301
35	0x401fea9e	2.498695
36	0xbff1ae49	-1.8881313
37	0xbe855bfd	-0.26046744
38	0x3fb39b15	1.4031702
39	0xbf54188c	-0.82849956
40	0x3fe3cd2e	1.7796991
41	0x3f3363d4	0.700742
42	0x3f9aec18	1.21033
43	0x3f39a60e	0.72519004
44	0xbfa60335	-1.2969729
45	0x3daabf45	0.08337263
46	0x3e8fee13	0.28111324
47	0x3f67f6e5	0.90611106
48	0xbee02b52	-0.4378305
49	0x401c7289	2.4444907
50	0x4008c3db	2.136954
51	0xbfaedb8a	-1.3660748
52	0xbd5c0715	-0.05371769
53	0xbeabc235	-0.33546606
54	0x3f52fa09	0.82412773
55	0x3f883482	1.0641024
56	0x3ee15100	0.4400711
57	0xbff211fc	-1.8911738
58	0xc08b64ec	-4.3560696
59	0x3e1b037e	0.15138051
60	0xbf3e4c10	-0.7433481
61	0xbe8c6e42	-0.2742787
62	0x3fbe5bce	1.4871767
63	0xbe52d4a1	-0.20588924
64	0xbd584715	-0.052802164
65	0x3ee64ba0	0.44979572
66	0xbd6c5f7c	-0.05770825
67	0x3dcd51d7	0.10025375
68	0x3f276e56	0.65402734
69	0x3f47b52b	0.78010815
70	0xbf336561	-0.70076567
71	0xbe49709c	-0.19671863
72	0xbf05d7b5	-0.5228227
73	0x3f0de7ca	0.5543181
74	0xc032d1d6	-2.7940574
75	0xbf932ba1	-1.149769
76	0xbfcf0475	-1.6173235
77	0xc103b503	-8.231692
78	0x3fc0e531	1.5069944
79	0x3fd8857d	1.6915737
80	0x401d09a7	2.4537141
81	0xbf68b53e	-0.90901554
82	0xc117289d	-9.447415
83	0x4028941a	2.6340394
84	0x4051addd	3.2762368
85	0x40004264	2.0040522
86	0xbe86e91a	-0.26349717
87	0x3f846ab6	1.0345066
88	0x3f512bad	0.8170727
89	0xc0d0fa2f	-6.53054
90	0x3f66ae4e	0.9010972
91	0xbfcfcd4b	-1.6234525
92	0x401e8803	2.4770515
93	0xc011662e	-2.2718616
94	0x3fee9994	1.8640618
95	0xc01582ef	-2.3361166
96	0x40fb8db1	7.8610463
97	0x3eb9f9a0	0.3632326
98	0xbf48fb7c	-0.78508735
99	0x3f240746	0.640736
100	0x40cffb34	6.4994144
101	0xbf87fd20	-1.0624123
102	0xbf4669c7	-0.77505153
103	0xbe0b39d0	-0.13596272
104	0x3f2d7fed	0.67773324
105	0x3f2d17e8	0.67614603
106	0x3f236c0a	0.6383673
107	0x3f5cfd3c	0.86323905
108	0xc02f4acf	-2.738941
109	0xbfa02a74	-1.2512956
110	0x3f97cbbc	1.185905
111	0x3f811c36	1.0086734
112	0x3f99a6ac	1.2003989
113	0x3faa324e	1.3296602
114	0x3f4fac8a	0.8112265
115	0x40915d82	4.5426645
116	0xc0270fe2	-2.6103444
117	0x3f9cb438	1.2242498
118	0xc064795f	-3.569908
119	0x3e4e7f90	0.20165849
120	0xbeee92ba	-0.46596318
121	0x40596cce	3.397266
122	0x3f56aa23	0.8385336
123	0xc10013aa	-8.004801
124	0xbff644d0	-1.923975
125	0xbe9e4745	-0.3091375
126	0x3fad6ec6	1.354943
127	0xbec17db3	-0.37791213

actor.latent_pi.2.weight f4 [128, 128]
0	0xbdb0d89a	-0.086350635
1	0x3f9eba90	1.2400684
2	0x3dd7eaf3	0.1054286
3	0x3ebc26b3	0.36748275
4	0x3ea918e1	0.33026794
5	0x3d5c732d	0.053820778
6	0x3f426f8f	0.75951475
7	0xbee17565	-0.44034877
8	0xbf5075ec	-0.81429935
9	0x3edfab40	0.4368534
10	0xbf8cbf89	-1.0995952
11	0xbd0b2c18	-0.033977598
12	0x3bd607c3	0.006531687
13	0xbfbcfd88	-1.4764872
14	0x3c12128a	0.008915553
15	0xbf3357d1	-0.7005587
16	0x3eb7f6c9	0.3593047
17	0xbda4dcc7	-0.080499224
18	0xbbe87a80	-0.0070946813
19	0x3dd9091f	0.10597443
20	0x3f99831c	1.1993136
21	0xbede6110	-0.43433428
22	0xbe0539a2	-0.13010266
23	0x3e8c89d0	0.27448893
24	0xbd834570	-0.064097285
25	0x3dc64c47	0.096825175
26	0xbee111a0	-0.4395876
27	0xbf3f3e79	-0.747047
28	0x3e92ce52	0.28673035
29	0xbe04066b	-0.12893073
30	0x3e18bac0	0.1491499
31	0x3f347ada	0.70499957
32	0x3f3dabc0	0.74090195
33	0xbdcf812f	-0.10132062
34	0x3fb68d10	1.4261799
35	0xbe9d5c08	-0.30734277
36	0x3ef11d57	0.47092697
37	0x3ea41d1d	0.32053462
38	0xbea10a75	-0.3145329
39	0x3e787d4f	0.24266551
40	0x3eb32a27	0.34993097
41	0xbf4c8a0e	-0.79898155
42	0x3f4b8df6	0.7951349
43	0xbf5dad81	-0.8659287
44	0xbb703c62	-0.0036657085
45	0x3f010b97	0.5040831
46	0x3e8c64fc	0.27420795
47	0xbee74f0d	-0.45177498
48	0x3ddb5ee9	0.10711462
49	0xbe102827	-0.14077817
50	0x3f14e7a2	0.58165944
51	0xbeb1d526	-0.34732932
52	0x3e1e6d14	0.15471298
53	0x3f875c7a	1.0575097
54	0xbed85413	-0.42251644
55	0x3ec9b1f8	0.39393592
56	0x3e9956b5	0.29948965
57	0xbdd1c8b3	-0.102433585
58	0x3ec5c0e7	0.38623735
59	0x3cb6021b	0.0222178
60	0x3f387e51	0.72067744
61	0xbf128274	-0.57230306
62	0x3e1a6dec	0.15080994
63	0xbf092856	-0.5357717
64	0xbf0dab86	-0.5533985
65	0xbe416b9a	-0.18888703
66	0x3e27761e	0.16353652
67	0x3e77e09b	0.24206774
68	0xbd009a0a	-0.031396903
69	0x3de7cc9b	0.11318322
70	0x3f9388d2	1.1526129
71	0xbdbaa353	-0.09113183
72	0xbf213cf3	-0.62983626
73	0xbe807b5d	-0.2509412
74	0x3e942f13	0.28942165
75	0xbe053ca5	-0.13011415
76	0x3ebd2d5a	0.36948663
77	0xbf6abe44	-0.9169657
78	0xbe63d265	-0.22248228
79	0xbce810ec	-0.028328381
80	0xbf0af1e6	-0.5427536
81	0x3db1f2e4	0.08688906
82	0xbc97320d	-0.018456483
83	0x3e5805f5	0.21096022
84	0xbf44e116	-0.76905954
85	0x3ecd1316	0.40053624
86	0xbd079c49	-0.03310803
87	0xbc669dc3	-0.014075699
88	0xba8fdb08	-0.001097531
89	0xbee73c03	-0.45162973
90	0xbda9b27f	-0.082859986
91	0x3e20caf9	0.15702428
92	0x3f5e029e	0.86722744
93	0xbf1b7770	-0.6072912
94	0xbd7213fd	-0.059101094
95	0xbf617fe9	-0.880858
96	0x3f4de7eb	0.80432004
97	0xbdebd64f	-0.115154855
98	0x3ee224d1	0.44168714
99	0x3eafda7d	0.3434638
100	0xbb07ef3f	-0.0020741967
101	0xbf42157b	-0.75814027
102	0x3e535ff4	0.20642072
103	0x3e846baf	0.25863406
104	0xbe798fea	-0.24371305
105	0x3f195e89	0.59909874
106	0xbf509838	-0.8148227
107	0xbcf639b5	-0.030056814
108	0xbe4651fb	-0.1936721
109	0xbe233e94	-0.1594184
110	0xbec619ab	-0.38691458
111	0xbe6a0a5d	-0.22855516
112	0xbd4064b4	-0.046971038
113	0xbeeb7ecb	-0.45995173
114	0xbda351d6	-0.07974593
115	0x3f715bf8	0.9428096
116	0xbf00b98d	-0.5028313
117	0x3d57042d	0.052494217
118	0xbf80ca99	-1.0061828
119	0x3f6ce921	0.92543226
120	0x3e6dc087	0.23217975
121	0x3f601de4	0.8754561
122	0xbe73bee2	-0.23803285
123	0x3e4372e8	0.19086802
124	0x3f263662	0.6492673
125	0x3eaccae3	0.3374854
126	0x3e0585b8	0.13039291
127	0xbea18523	-0.31546888
128	0x3ddc5a89	0.10759456
129	0xbea1bad8	-0.31587863
130	0xbe1fa654	-0.15590793
131	0x3d197079	0.037460778
132	0xbe3c11ee	-0.18366215
133	0xbd8da408	-0.06916052
134	0x3e4e3072	0.20135668
135	0xbea1455d	-0.31498232
136	0x3e8728f8	0.26398444
137	0xbea07611	-0.31340078
138	0xbee5027b	-0.44728455
139	0xbea9d8e2	-0.3317328
140	0x3eb991c6	0.3624403
141	0x3f01b56f	0.5066747
142	0x3ed6329b	0.41835484
143	0xbf03407b	-0.51270264
144	0x3cfd54f3	0.030924296
145	0xbe3a33a0	-0.18183756
146	0x3d6cc0f8	0.057801217
147	0x3d2a708c	0.04161124
148	0x3f129ed1	0.57273585
149	0xbcde5bb4	-0.027143337
150	0xbdbc6291	-0.091984876
151	0x3d8c4315	0.068487324
152	0x3e6ddef8	0.23229587
153	0xbfc7b8b2	-1.560324
154	0xbebcd557	-0.36881515
155	0x3ea7b350	0.32753992
156	0xbed75b95	-0.4206206
157	0xbd8f6343	-0.070013545
158	0x3d725c81	0.05917025
159	0xbf2e5d03	-0.68110675
160	0xbe216076	-0.15759453
161	0x3e6bc3b9	0.23023881
162	0x3eda4ecf	0.4263825
163	0x3d26972e	0.04067152
164	0x3e0772d1	0.13227393
165	0xbc2971d1	-0.010342077
166	0xbea58dbb	-0.32334694
167	0xbe9ba00b	-0.3039554
168	0x3e9729b7	0.29524013
169	0x3e1658b7	0.1468228
170	0x3fca9e75	1.5829607
171	0x3c87b72f	0.016566841
172	0x3d8f89e5	0.07008723
173	0xbe0594fe	-0.13045117
174	0x3d53411c	0.051575765
175	0x3fa42a34	1.2825379
176	0x3f9d339a	1.2281373
177	0x3eebc303	0.4604722
178	0x3e53c6f4	0.20681363
179	0x3eae4b54	0.34041846
180	0xbf0a6f91	-0.54076487
181	0xbe70e6fe	-0.23525617
182	0xbe029e33	-0.1275566
183	0x3f2aaf88	0.6667409
184	0xbe359f79	-0.17736615
185	0xbe8e317e	-0.27772135
186	0x3e4bc3bd	0.19898887
187	0x3f24c445	0.64361984
188	0x3db5ee55	0.08883349
189	0xbd4eee6d	-0.05052035
190	0xbe3132a8	-0.1730448
191	0x3ebc5261	0.367816
192	0x3e9d68bc	0.30743968
193	0xbe9e2818	-0.30889964
194	0x3e6887f9	0.2270812
195	0x3dbe865e	0.09302972
196	0xbd9f4d39	-0.07778401
197	0xbd10a2b5	-0.03531142
198	0x3f82e53f	1.022621
199	0x3f07719e	0.5290774
200	0x3ed420ef	0.41431376
201	0xbd80bebd	-0.062863804
202	0x3d8f304a	0.06991632
203	0xbe88ea68	-0.26741338
204	0xbdc4436f	-0.095831744
205	0x3e0d1163	0.13776164
206	0xbd967c16	-0.07347886
207	0xbed680d0	-0.4189515
208	0x3d93fb42	0.07225658
209	0xbe8acb80	-0.27108383
210	0x401d57d3	2.4584854
211	0x3e7aeff9	0.24505605
212	0xbc726c4b	-0.014796327
213	0x3ef21250	0.47279596
214	0xbdccbf43	-0.09997418
215	0xbc9a2d6e	-0.01882049
216	0xbe60c449	-0.21949877
217	0x3e86ee14	0.26353514
218	0xbaa7bb45	-0.00127969
219	0x3e20fd19	0.15721549
220	0xbe825df4	-0.25462306
221	0x3cae8dd7	0.021307869
222	0xbda323c5	-0.07965807
223	0xbf14c2dc	-0.5810983
224	0x3f01d064	0.50708604
225	0xbe1e12eb	-0.15436904
226	0xbe66f517	-0.22554432
227	0x3e33efe0	0.17571974
228	0xbf808229	-1.0039722
229	0x3b89890d	0.004197246
230	0xbc2a23e8	-0.010384537
231	0xbf043c66	-0.5165466
232	0xbc5677e0	-0.013090104
233	0xbe6404c7	-0.22267447
234	0x3e1a0dd0	0.15044332
235	0x3f32162c	0.6956508
236	0x3f0a916f	0.54128164
237	0x3ef23de4	0.47312844
238	0xbefa815c	-0.48926818
239	0xbe0c4cfc	-0.13701242
240	0x3d8f610d	0.07000933
241	0x3d811f82	0.06304838
242	0x3ed962bf	0.4245815
243	0x3f87ab4a	1.0599148
244	0x3eb38c47	0.3506796
245	0xbe533988	-0.20627415
246	0x3e87027f	0.26369092
247	0x3dc696d2	0.096967354
248	0xbe9077ba	-0.28216344
249	0x3ee24952	0.44196564
250	0x3e9db6a8	0.30803418
251	0x3e8e58bb	0.2780207
252	0x3e93ddb2	0.28880078
253	0x3eb3920b	0.3507236
254	0x3dbfd41c	0.093666285
255	0xbd407291	-0.04698426

actor.latent_pi.2.bias f4 [128]
0	0x3c9101c2	0.017701034
1	0x3f185c90	0.5951624
2	0xbefc820a	-0.49317962
3	0xbf1c0dfb	-0.6095883
4	0xbe9d5c02	-0.3073426
5	0x3fc8ae35	1.5678164
6	0x3f5965f7	0.8492121
7	0x3ea3aef5	0.3196942
8	0x3f54b063	0.83081645
9	0xbfd21b53	-1.6414589
10	0x4005229e	2.0802379
11	0x3e64f496	0.22358927
12	0x4086663d	4.1999803
13	0x3f064ce4	0.52461076
14	0xbf1fc59d	-0.6241091
15	0xbf0eb324	-0.55742097
16	0xbf953af7	-1.165862
17	0xbf10031a	-0.5625473
18	0x3ec8dc95	0.3923079
19	0xc017436b	-2.3634899
20	0x3ea180d5	0.31543604
21	0x3f85318c	1.0405746
22	0xbef01636	-0.46891946
23	0x3f85c71d	1.045139
24	0x3f967ed3	1.1757454
25	0x3f8cd5ef	1.1002787
26	0x3f96e3fb	1.1788324
27	0xbeba92b6	-0.36440057
28	0x3c15bfd1	0.009139971
29	0x3e35b55e	0.17744967
30	0xbfa0593e	-1.2527235
31	0xbf2cf4d6	-0.6756109
32	0x3d841359	0.06449003
33	0x3f49b778	0.78795576
34	0x3f86b8fb	1.0525202
35	0xbea42fe3	-0.32067785
36	0x3e85442c	0.26028574
37	0x403a4958	2.9107265
38	0x3e89f20d	0.26942483
39	0x3fd8aec2	1.6928332
40	0xbed19002	-0.40930182
41	0xbdfd94c1	-0.12381888
42	0xbf8e829a	-1.1133606
43	0xbf83316c	-1.0249457
44	0x3f8b75e9	1.0895358
45	0xc003cd96	-2.059423
46	0x3edc7adf	0.43062493
47	0xbf5ef589	-0.87093407
48	0x3f5e16ac	0.86753345
49	0xbf66d919	-0.90175015
50	0x3ff9e2ba	1.9522316
51	0xbf4a5ffc	-0.7905271
52	0xbd9b001c	-0.0756838
53	0xbf3cd84d	-0.7376755
54	0x3e39bf4e	0.18139383
55	0x3f44232d	0.76616174
56	0xbf1b3f48	-0.60643435
57	0x3f3f0d89	0.7463003
58	0xbe8e7e2a	-0.2783063
59	0xbfdfd58e	-1.7487047
60	0xbeb0e839	-0.34552172
61	0xc025810f	-2.586002
62	0xbe8f57dc	-0.2799672
63	0x3eecebf2	0.46273762
64	0xbf088aab	-0.5333659
65	0x3e9a8047	0.30175993
66	0x4001802f	2.0234487
67	0x3fea1566	1.828778
68	0x3ee5a707	0.44853994
69	0xbf2d988b	-0.6781089
70	0x3ee380bc	0.44434154
71	0x405015e8	3.251337
72	0xbe375458	-0.17903268
73	0x3e292089	0.16516317
74	0x3e54f7b3	0.20797615
75	0xbf4992f2	-0.78739846
76	0x3f320904	0.69545007
77	0x3f43811a	0.7636887
78	0xbfe67c43	-1.8006672
79	0xbf522543	-0.82088107
80	0xbf3b26bc	-0.7310598
81	0xbe814dd2	-0.25254685
82	0x3f879b9e	1.0594366
83	0x3e9548db	0.29157147
84	0xbecc4773	-0.3989826
85	0x3ef69f76	0.48168534
86	0x3fe8a968	1.8176699
87	0xbe4eab0a	-0.20182434
88	0x3fd88e9e	1.6918523
89	0x3ec9b0a6	0.39392585
90	0x3f585c9a	0.845163
91	0x4012c272	2.293118
92	0x3e0656d5	0.13119061
93	0x3f85c869	1.0451785
94	0x3fa1ea61	1.2649652
95	0xbf57a7b8	-0.84240294
96	0xbe31e879	-0.17373838
97	0xbf4a50b8	-0.7902942
98	0x3fbe8fe6	1.4887664
99	0xbcb5e7cd	-0.022205258
100	0xbf892af1	-1.071623
101	0xbe43fa8c	-0.19138545
102	0x3f0cb673	0.54965895
103	0x3f0f8ac4	0.56071115
104	0x3ea5bbe4	0.32369912
105	0xbe1c61da	-0.15271702
106	0x3e517f59	0.20458736
107	0x3e153150	0.14569592
108	0x3fb1573d	1.3854748
109	0xbe8d5415	-0.27603212
110	0x3f996417	1.198367
111	0x3ed95cb2	0.42453533
112	0xbf142956	-0.57875574
113	0xc00e1715	-2.2201588
114	0xbf4174b4	-0.755687
115	0x3f66704c	0.900151
116	0x3ea57cbc	0.32321727
117	0xbed6e3e7	-0.4197075
118	0x3e0b7359	0.1361822
119	0xbe0c452f	-0.13698266
120	0x3f5e1c9a	0.8676239
121	0x3f2fc20d	0.68655473
122	0xc0047777	-2.0697916
123	0xbf910a6f	-1.1331309
124	0x3f2aca62	0.6671506
125	0x3f0e75ab	0.556483
126	0x3f06334c	0.5242202
127	0x40199da9	2.4002478

actor.mu.weight f4 [3, 128]
0	0x3d3440b5	0.044007022
1	0x3e3cbbcc	0.18431014
2	0x3be72155	0.007053534
3	0x3df47a53	0.11937394
4	0x3d29f47c	0.041492924
5	0xbc43b52e	-0.011945052
6	0x3e8b553b	0.27213463
7	0xbd1b116e	-0.03785842
8	0x3de7537d	0.11295221
9	0x3e0fd881	0.14047433
10	0x3dee7425	0.116432466
11	0x3d961ca9	0.07329685
12	0xbeb5abe1	-0.35482696
13	0xbd4e303e	-0.050338976
14	0x3e0dc8a3	0.13846068
15	0xbcf18749	-0.029483454
16	0x3ed5e69c	0.41777503
17	0xbe30b249	-0.1725551
18	0xbeafd01d	-0.34338465
19	0x3e9ad288	0.30238748
20	0x3c839a60	0.016064823
21	0x3e2e891b	0.17044489
22	0x3d802715	0.06257454
23	0x3e82e1d4	0.25562918
24	0x3e89fe21	0.26951697
25	0xbd383fa8	-0.044982582
26	0xbdeaaf36	-0.114592
27	0xbd869170	-0.06570709
28	0x3e4c1158	0.19928491
29	0x3e54c351	0.20777632
30	0x3de59b30	0.1121124
31	0x3d14c812	0.036323614
32	0xbdeb2b55	-0.11482874
33	0xbe07de0a	-0.13268295
34	0xbb4a2b5f	-0.0030848605
35	0xbd04d1ff	-0.03242683
36	0xbe78cdb4	-0.2429722
37	0x3f210ae1	0.62907225
38	0x3b3a5317	0.0028430873
39	0x3e218e35	0.15776904
40	0x3bdf98f9	0.0068236557
41	0x3b9a8f3f	0.0047167833
42	0x3cf3bff2	0.029754613
43	0x3c9f688d	0.019459033
44	0xbbe0c25a	-0.006859106
45	0x3d113d45	0.03545882
46	0x3cde902f	0.027168361
47	0xbe29a75c	-0.16567749
48	0x3dbb1c0d	0.0913621
49	0xbdb061ee	-0.086124286
50	0x3dcaf48d	0.099099256
51	0xbe528608	-0.20558941
52	0xbd888fba	-0.06668039
53	0x3bd6d157	0.006555717
54	0xbded4350	-0.115851045
55	0x3ed1e83d	0.40997496
56	0xbdc0b20b	-0.09408959
57	0xbcdb4801	-0.026767733
58	0x3dc13ea0	0.09435773
59	0xbde356a5	-0.111005105
60	0x3ee3d1e9	0.44496086
61	0xbe497619	-0.19673957
62	0xbe92b7c9	-0.28655842
63	0x3d917350	0.07102072
64	0x3e8df959	0.277293
65	0x3dfb72ba	0.12277742
66	0xbdbc1aae	-0.09184776
67	0xbc517041	-0.012783111
68	0xbe835400	-0.25650024
69	0x3dcd764a	0.100323275
70	0x3cbb6c61	0.022878828
71	0xbc90b28d	-0.017663265
72	0x3dce289c	0.100663394
73	0x3cecc5fa	0.028902996
74	0x3d9f1d6a	0.07769282
75	0xbc1f3960	-0.009718269
76	0xbe1300e1	-0.14355804
77	0xbe5c6cc7	-0.2152587
78	0x3d7ef52e	0.06224554
79	0xbd8f1992	-0.06987299
80	0xbd164f53	-0.036696743
81	0xbd1ba427	-0.037998345
82	0xbc0b9473	-0.00851928
83	0x3bc17a07	0.0059044394
84	0xbf1641b3	-0.58694
85	0xbe391bf2	-0.18077067
86	0xbde2393a	-0.11046071
87	0x3e56a3df	0.2096095
88	0x3f10ecc2	0.56611264
89	0xbd71a9a8	-0.058999687
90	0xbcacd5bd	-0.021098012
91	0xbd8ec678	-0.06971449
92	0x3c4d4dc7	0.012530751
93	0x3d3bee97	0.045881834
94	0xbe771180	-0.2412777
95	0x3ead0dd2	0.33799607
96	0x3ec889b2	0.39167553
97	0x3cbcfc5e	0.023069557
98	0xbb28773b	-0.0025705833
99	0x3dea1e8c	0.114316076
100	0xbcee3976	-0.029080134
101	0xbdd195c8	-0.10233647
102	0xbcfbbbdb	-0.030729225
103	0xbe78fcb8	-0.24315155
104	0xbdb645cc	-0.089000314
105	0xbe5ed256	-0.21759924
106	0x3bb1843a	0.005417374
107	0xbd174a80	-0.036936283
108	0x3df8cecc	0.121488184
109	0x3d0879d0	0.033319294
110	0xbd88d5d0	-0.066814065
111	0x3d912861	0.0708778
112	0xbe116092	-0.14196995
113	0x3df9a7c0	0.12190199
114	0x3d99cebe	0.07510136
115	0xbd06a0d9	-0.03286824
116	0xbd11da79	-0.035608742
117	0x3c6567b5	0.014001776
118	0xbe0551e8	-0.13019526
119	0x3d186b1f	0.037211534
120	0x3d1254fb	0.035725575
121	0x3ddd3fad	0.10803161
122	0x3c1a3bb5	0.009413649
123	0xbd0a2f03	-0.03373624
124	0x3da9c216	0.08288972
125	0x3d91d7ac	0.07121214
126	0x3c5e19ce	0.013555957
127	0x3e9f1806	0.31073016
128	0x3ca06c66	0.019582938
129	0x3e45fdd1	0.19335105
130	0xbcca6775	-0.024707535
131	0xbe497780	-0.19674492
132	0xbe32a3b0	-0.17445254
133	0x3e97d29a	0.29652864
134	0x3e228bb6	0.15873608
135	0x3ca1b093	0.019737517
136	0xbe942a99	-0.2893875
137	0xbf038c29	-0.5138574
138	0x3f10f7ee	0.5662831
139	0x3c785fd3	0.015159565
140	0x3f562f28	0.83665705
141	0x3ed7f965	0.4218246
142	0xbea5ee51	-0.32408383
143	0xbd15b499	-0.036549184
144	0x3c8d7f53	0.017272627
145	0xbba78032	-0.0051117176
146	0xbcfe1fe9	-0.031021075
147	0xbf23f928	-0.6405206
148	0x3e9e24ff	0.308876
149	0xbd83e094	-0.06439319
150	0xbdbad445	-0.091225185
151	0xbd9bf7df	-0.07615637
152	0xbd543021	-0.05180371
153	0xbddcc471	-0.10779656
154	0xbc7ea6be	-0.015542684
155	0x3e29f96f	0.16599058
156	0xbe46610e	-0.19372961
157	0x3becc0d9	0.0072251377
158	0xbf0404c4	-0.5156977
159	0x3eb6edd1	0.35728315
160	0xbab70498	-0.0013963161
161	0x3e3e378e	0.1857588
162	0xbe0e4d26	-0.13896617
163	0x3cce43c4	0.025178798
164	0x3dcb2cdb	0.09920665
165	0xbc8a1d27	-0.016859604
166	0xbc361993	-0.011114496
167	0xbdfb2e68	-0.12264711
168	0x3d269aac	0.04067485
169	0xbd80944a	-0.06278284
170	0xbd6c253a	-0.05765269
171	0x3e867824	0.26263535
172	0x3dd6cd28	0.10488349
173	0xbe2083e1	-0.15675308
174	0x3dae8a99	0.08522529
175	0x3ef6b0c9	0.4818175
176	0xbd464483	-0.04840518
177	0x3e64cafd	0.22343059
178	0xbcb3ddd7	-0.021956367
179	0x3ec8897a	0.39167386
180	0x3cee6ec8	0.029105559
181	0xbe349fdd	-0.17639108
182	0x3e9b579b	0.30340275
183	0x3d9b4adc	0.07582638
184	0x3dfad2e9	0.12247259
185	0xbe38ef7a	-0.18060103
186	0xbe39c433	-0.1814125
187	0x3e0cb063	0.13739161
188	0x3db9a26b	0.09064182
189	0x3e6d81fa	0.23194113
190	0x3de6eb7b	0.11275383
191	0x3e2bce86	0.16778001
192	0xbd478444	-0.048710123
193	0xbde0d6a2	-0.10978438
194	0xbd70e166	-0.058808707
195	0x3ec5135c	0.38491333
196	0xbe0251d6	-0.1272653
197	0xbe071c77	-0.13194452
198	0x3d46a5e7	0.04849806
199	0x3f0195c5	0.50619155
200	0xbce1875a	-0.027530361
201	0x3d851711	0.0649854
202	0x3d9ce375	0.076605715
203	0xbeae357f	-0.3402519
204	0x3e4cc572	0.19997194
205	0xbe973daa	-0.29539233
206	0xbed0944a	-0.40738136
207	0xbd2d9a13	-0.042383265
208	0x3eb1b88e	0.34711117
209	0x3dd685d3	0.10474744
210	0xbdf4d7ab	-0.11955198
211	0xbd96e49c	-0.073678225
212	0x3e3b7083	0.18304639
213	0x3d9fbb98	0.077994525
214	0xbf1c0de8	-0.6095872
215	0xbe744e97	-0.23858105
216	0xbd406f72	-0.046981283
217	0xbe8d357b	-0.27579865
218	0xbe76a875	-0.24087699
219	0x3f2429ff	0.6412658
220	0xbe5edb2c	-0.21763295
221	0xbd6e4f68	-0.058181196
222	0x3ef7dadc	0.48409164
223	0xbdcbe75f	-0.0995624
224	0x3b0fba90	0.0021931268
225	0xbe5b91a0	-0.2144227
226	0x3d135655	0.035971005
227	0x3b466f2d	0.0030278668
228	0xbd20bb81	-0.039241318
229	0x3af4a232	0.0018664061
230	0x3e6999d8	0.22812593
231	0x3e5cce27	0.21563016
232	0x3c53fdae	0.0129389
233	0xbc98c346	-0.018647801
234	0x3d6947ae	0.056953125
235	0xbde45a05	-0.11149982
236	0xbf2cb1a8	-0.6745858
237	0x3ecbc840	0.39801216
238	0xbd193cb0	-0.03741139
239	0xbdca0b17	-0.098653965
240	0x3e8a8946	0.27057856
241	0x3de4d98d	0.11174307
242	0x3e153f9c	0.14575046
243	0x3d96b234	0.07358208
244	0xbd0e3127	-0.034714844
245	0x3ea85aca	0.32881767
246	0x3f0a09a0	0.53920937
247	0x3d7ee8ce	0.06223374
248	0x3ac133bb	0.0014740148
249	0xbeccdb3c	-0.40011013
250	0x3c96c500	0.018404484
251	0x3e18b98b	0.14914529
252	0xbeaf096c	-0.34186876
253	0x3d23d525	0.039998192
254	0xbdd0481d	-0.101700045
255	0xbe7b8d2a	-0.24565569

actor.mu.bias f4 [3]
0	0x3e942145	0.28931633
1	0x3d65f24b	0.05613927
2	0xbc8539d9	-0.016262935

actor.log_std.weight f4 [3, 128]
0	0xbc8721db	-0.016495636
1	0xbd3faaeb	-0.04679386
2	0x3c83a0d2	0.016067896
3	0xbb3c32fc	-0.0028716912
4	0x3d036505	0.03207876
5	0xba448e8f	-0.00074980495
6	0xbcbb4db8	-0.022864208
7	0x3cb04ec9	0.021521943
8	0xbd13796c	-0.03600447
9	0xbd52ba64	-0.051447287
10	0x3c81d3e4	0.015848108
11	0xbc6219f5	-0.013800134
12	0xbd944888	-0.07240397
13	0xbb49e0c1	-0.003080413
14	0xbbfb8ce7	-0.007676709
15	0x3be506ca	0.0069893347
16	0x3dd425dd	0.10358784
17	0xbc9a491d	-0.018833691
18	0xbd8931fc	-0.06698987
19	0xbdba5a16	-0.09099214
20	0x3d26b789	0.040702377
21	0x3b8e71ab	0.0043470464
22	0x3cab96bf	0.020945905
23	0xbce64e00	-0.028113365
24	0xbc924613	-0.01785568
25	0xbc833175	-0.016014794
26	0x3c8b5475	0.017008046
27	0x3cb2ed97	0.021841807
28	0x3c7492b2	0.014927553
29	0x3b43bd3e	0.0029867436
30	0x3c4b6853	0.01241501
31	0xbd07b5d7	-0.0331324
32	0xbc856d30	-0.016287416
33	0x3d27bb58	0.04095015
34	0x3d15b69a	0.036551096
35	0x3bc4ef74	0.0060099903
36	0xbca37d74	-0.019957282
37	0xbdc9e59e	-0.09858249
38	0xbbb62f56	-0.005559842
39	0x3c2c128f	0.010502472
40	0x3ce4969c	0.027903847
41	0xbbf72ea3	-0.0075434013
42	0x3cd20fad	0.02564224
43	0xbd225094	-0.039627627
44	0xbca1d191	-0.01975325
45	0xbcf122e2	-0.029435579
46	0xbd03c194	-0.032167032
47	0x3d870b81	0.06593991
48	0x3c8b4e6f	0.017005173
49	0xbc1fece5	-0.00976107
50	0x3ca130c0	0.019676566
51	0xba35479f	-0.00069152744
52	0x3b57d9de	0.0032936255
53	0xbbbc50be	-0.00574693
54	0xbd4035b4	-0.046926215
55	0x3be1619a	0.00687809
56	0xbc58cb06	-0.013231998
57	0x3b8b132b	0.0042442284
58	0x3d4104ac	0.047123596
59	0x3bc37a81	0.0059655313
60	0x3d0eec9a	0.03489361
61	0x3d18e8e5	0.03733148
62	0xbb5c8956	-0.0033651195
63	0xbc572b8a	-0.013132939
64	0x3bfe46a3	0.0077598854
65	0xbc004e84	-0.00783122
66	0x3d8aac0c	0.067710966
67	0x3c1d3d2f	0.009597107
68	0xbbe5f06d	-0.0070171864
69	0x3c1b8740	0.009492695
70	0x3c837abc	0.016049735
71	0x3b0a9eeb	0.0021151851
72	0xbb012e90	-0.0019711591
73	0xbb9bf567	-0.004759479
74	0x3c85ddec	0.016341172
75	0x3a8d93a8	0.0010801451
76	0x3c6cb6c7	0.014447874
77	0x3d39ca7c	0.04535912
78	0xbd036d32	-0.03208656
79	0xbd183686	-0.037161373
80	0x3ca66b34	0.02031479
81	0xbc738e2f	-0.014865442
82	0xbcdb342b	-0.026758274
83	0x3c7c2187	0.015388853
84	0x3cb470b5	0.0220264
85	0x3c98cf35	0.018653492
86	0x3d793a2a	0.060846485
87	0x3d04d016	0.03242501
88	0xbdb43c22	-0.08800532
89	0xbd4d2baf	-0.050090488
90	0x3c1d1359	0.009587132
91	0xbb97f7a4	-0.0046376754
92	0xbca4eba5	-0.020131895
93	0x3bc3199d	0.005953981
94	0x3d913088	0.07089335
95	0xbcec6413	-0.028856313
96	0x3c93ae30	0.018027395
97	0xbcd0703e	-0.025444146
98	0x3d20b623	0.0392362
99	0x3cd4b681	0.02596593
100	0xbca619e2	-0.020276014
101	0x3a8fa173	0.001095815
102	0xbc9f03f7	-0.01941107
103	0x3e0fcf7b	0.14043991
104	0x3c940495	0.018068591
105	0x3c0412ce	0.008061124
106	0x3bb8aa4e	0.0056355363
107	0x3c3221ba	0.010872299
108	0x3c2b0083	0.010437134
109	0xbc1d462f	-0.009599253
110	0x3d0d85d7	0.034551468
111	0xbc0d4521	-0.008622439
112	0x3c8e2028	0.017349318
113	0x3ca5148e	0.020151403
114	0xbd072859	-0.032997463
115	0x3d5fbc52	0.054622956
116	0x3b866350	0.0041011944
117	0xbc8acc30	-0.016943067
118	0xbc16fad8	-0.009215079
119	0x3d59770f	0.05309206
120	0xbbb76834	-0.005597139
121	0xbc19801e	-0.009368924
122	0xbd125351	-0.035723988
123	0xbd14c28f	-0.036318358
124	0x3b716fed	0.0036840395
125	0x3ccf0579	0.025271164
126	0x3bf03f39	0.0073317555
127	0x3d4ec972	0.050485082
128	0xbc3cc7e8	-0.011522271
129	0x3c072546	0.008248633
130	0x3b3fe948	0.0029283334
131	0x3aef16b0	0.0018241014
132	0x3bf950d1	0.007608511
133	0x3d1ab07b	0.03776596
134	0x3c74a293	0.014931339
135	0xbd097a28	-0.033563763
136	0x3d8d56ff	0.06901359
137	0xbc8916a6	-0.016734432
138	0xbd16f565	-0.03685512
139	0x3c23d083	0.009998444
140	0xbc4156b7	-0.01180046
141	0xbc9f1368	-0.019418433
142	0xbc7e5ec2	-0.015525522
143	0xbc8f92b5	-0.01752601
144	0x3bd55308	0.0065101422
145	0x3adcd558	0.0016848249
146	0x3c3eacef	0.01163791
147	0x3d7e8bb1	0.06214494
148	0xbd7307e0	-0.059333682
149	0xbc37db6e	-0.01122175
150	0x3be8db49	0.007106219
151	0xba42f5f6	-0.0007437164
152	0xbc2a2d65	-0.010386799
153	0x39e50974	0.00043685327
154	0xbbbaf6af	-0.0057056765
155	0x3c9519a1	0.018200697
156	0x3c935f4c	0.017989777
157	0xbc0ef5a2	-0.008725556
158	0xbd742087	-0.059601333
159	0x3ca6c7ae	0.020358887
160	0x3cb6d0d0	0.022316366
161	0xbd100e9b	-0.03517018
162	0xbcc4c690	-0.024020463
163	0x3c23d31f	0.009999066
164	0xbc075a31	-0.008261249
165	0x3c99da61	0.018780889
166	0xbca75abe	-0.020429011
167	0xbd6c8136	-0.057740413
168	0x3c13411f	0.008987694
169	0x3b6b4dda	0.0035904557
170	0xbabf86e6	-0.0014612346
171	0xbcb622ed	-0.02223345
172	0x3b56a8f6	0.0032754517
173	0xbc8a65a9	-0.016894178
174	0xbae3335c	-0.0017334032
175	0xbd6b472b	-0.057440918
176	0xbd54e5b1	-0.051976863
177	0x3c20805a	0.009796226
178	0xbd068e73	-0.032850694
179	0x3d25e6f6	0.040503465
180	0x3d00efb0	0.031478584
181	0x3cac802c	0.02105721
182	0x3b59a51c	0.0033209985
183	0x3ce58cee	0.028021302
184	0xbbb77baa	-0.0055994587
185	0xbca4dd40	-0.020125031
186	0xbc92859d	-0.017885977
187	0xbd0cbbe8	-0.03435889
188	0xbca2f1e6	-0.019890737
189	0x3df52e63	0.11971738
190	0xbc008707	-0.007844693
191	0x3c5fd88c	0.013662469
192	0x3cd493b8	0.025949344
193	0x3d47297c	0.048623547
194	0x3cfe4b00	0.031041622
195	0x3bc4a769	0.006001402
196	0xbb86ae8c	-0.004110163
197	0x3c90c4ce	0.017671969
198	0x3cc882d2	0.024476442
199	0xbe1de5b9	-0.15419663
200	0x3cabc057	0.020965738
201	0x3bacf850	0.0052786246
202	0xbbb8ce03	-0.005639793
203	0xbd6b642e	-0.057468586
204	0xbd18569b	-0.03719197
205	0xbca1045e	-0.019655403
206	0xbd82e9bd	-0.06392238
207	0xbd093ef9	-0.03350732
208	0x3c657d12	0.01400687
209	0xbc932837	-0.017963512
210	0xbd1ec297	-0.038759794
211	0x3cb4796d	0.022030557
212	0xbc6d3017	-0.014476798
213	0x3c9d4779	0.01919912
214	0xbd5aa7e3	-0.053382766
215	0x3c46a470	0.012124166
216	0xbc88d7ea	-0.016704518
217	0xbc561fa0	-0.013069063
218	0x3c35da81	0.011099459
219	0xbd4219d9	-0.04738793
220	0xbd4c4711	-0.04987246
221	0xbbeba208	-0.0071909465
222	0x3c4b7348	0.012417622
223	0xbca7a207	-0.020463003
224	0xbbe4ef9d	-0.006986572
225	0x3baca64f	0.005268849
226	0xbd7ffbf9	-0.06249616
227	0xb9d4da66	-0.0004059851
228	0x3a9f266a	0.0012142186
229	0x3ce70619	0.02820115
230	0xbd39817e	-0.04528951
231	0x3d47fa28	0.048822552
232	0x3ca4d899	0.020122813
233	0x3d28490d	0.04108529
234	0x3a3f9ce6	0.00073094515
235	0x3b8ad73c	0.0042370837
236	0xbdb9885a	-0.0905921
237	0x3c5dde21	0.013541729
238	0xbca10464	-0.019655414
239	0xbc8e6b4f	-0.017385153
240	0xbb2e65f3	-0.002661106
241	0x3d8bc9c8	0.06825596
242	0x3d2690d5	0.040665466
243	0x3c839631	0.016062828
244	0x3cb2e693	0.021838462
245	0xbb0afceb	-0.002120788
246	0x3da9fd79	0.08300299
247	0xbacd9b9d	-0.0015686635
248	0x3d036641	0.03207994
249	0xbcf627ce	-0.030048277
250	0xbbc3ebfa	-0.0059790583
251	0x3c937f71	0.018005105
252	0xbd189c71	-0.03725857
253	0xbd0f930b	-0.03505234
254	0x3c186cfe	0.0093033295
255	0xbd9732b5	-0.073827185

actor.log_std.bias f4 [3]
0	0xbf83eaf6	-1.0306079
1	0xbe4f70f7	-0.20257936
2	0xbf536f80	-0.8259201

critic.qf0.0.weight f4 [128, 22]
0	0x3f327c1e	0.6972064
1	0xc0ae0058	-5.437542
2	0x40b1dd7b	5.558286
3	0x403c2f74	2.9403963
4	0x3f2ec954	0.6827595
5	0x3ea4f293	0.3221632
6	0xbe98e224	-0.29860032
7	0x3cf3a564	0.02974195
8	0x3d73d471	0.05952877
9	0xbd7949e3	-0.06086148
10	0x3d935ac8	0.071950495
11	0x3de59652	0.11210312
12	0x3d88215b	0.06646987
13	0x3b96add5	0.004598359
14	0x3d38f45a	0.045154907
15	0x3db1f6b4	0.08689633
16	0xbced6151	-0.028977068
17	0x3c0088fa	0.007845158
18	0xbe8cfff2	-0.2753902
19	0x3d738532	0.059453197
20	0xbdcffca2	-0.10155608
21	0x3d1b54d7	0.037922706
22	0xbfd5ce7c	-1.6703639
23	0xbf901074	-1.1255021
24	0x4006dadc	2.107108
25	0x3f628b63	0.8849394
26	0xbea50a39	-0.32234362
27	0xbe00846b	-0.12550513
28	0xbd410d7a	-0.047131993
29	0x3e207938	0.15671241
30	0xbdde9dfa	-0.108699754
31	0xbdffb931	-0.12486494
32	0xbcf19e95	-0.029494563
33	0x3dc83725	0.09776143
34	0x3cd249d3	0.025669968
35	0x3e28a96a	0.16470876
36	0xbf3c2396	-0.734918
37	0xbc361fc0	-0.011115968
38	0x3d1e32b7	0.038622584
39	0xbc98d11f	-0.018654404
40	0x3e06f1f4	0.13178235
41	0x3c8140e3	0.01577801
42	0xbdf421b9	-0.119204946
43	0xbdafa451	-0.08576263
44	0xbfac6761	-1.3469049
45	0xbf91cb8f	-1.1390246
46	0x3fa9a71d	1.3254124
47	0x3de93458	0.11386937
48	0xbf6c3990	-0.92275333
49	0xbf0d411c	-0.55177474
50	0xbcc8cb4f	-0.024511008
51	0xbe7ffbeb	-0.24998443
52	0x3dca5b6b	0.09880718
53	0x3a4068cc	0.00073398347
54	0xbddbd62a	-0.10734208
55	0xbf0b52bd	-0.54423124
56	0xbd59d311	-0.053179804
57	0x3d853ab3	0.065053366
58	0xbcee51c8	-0.02909173
59	0x3cbc4bc9	0.022985356
60	0xbdf2c72d	-0.11854396
61	0xbe2a6096	-0.16638407
62	0x3e0a2caa	0.134936
63	0xbdd88b65	-0.105734624
64	0x3e1b8f4a	0.15191379
65	0x3e6df3f7	0.23237596
66	0x3ecf0999	0.4043701
67	0x40559a5a	3.3375459
68	0xc00f5aa1	-2.2399065
69	0xbfc1a671	-1.5128919
70	0x3c7408f7	0.0148947155
71	0x3f1e9f46	0.6196178
72	0xbe8451af	-0.2584357
73	0x3e9460ff	0.28980252
74	0xbe7ea6a7	-0.2486826
75	0xbe0c548b	-0.13704126
76	0xbb89f3e1	-0.004209981
77	0xbf523f6f	-0.8212804
78	0xbced4a98	-0.028966233
79	0xbe826dc6	-0.25474375
80	0x3efd3d6e	0.4946093
81	0xbe879cad	-0.26486722
82	0x3d5190aa	0.051163353
83	0xbeff21e1	-0.49830535
84	0xbf087831	-0.533084
85	0x3aae902d	0.0013318114
86	0x3ca4f744	0.020137437
87	0x3e04c252	0.12964752
88	0xbf8cb0bc	-1.0991435
89	0xbe97e85b	-0.2966946
90	0x3ef4cb4f	0.47811362
91	0x3ecd4bce	0.40096897
92	0xbec372a8	-0.38173413
93	0x3e475702	0.19466785
94	0xbe1f470e	-0.15554449
95	0xbe2b7aa8	-0.16746008
96	0x3dde2f05	0.10848812
97	0x3d34e3be	0.044162504
98	0x3c118420	0.008881599
99	0xbe3c3433	-0.18379287
100	0xbf24a656	-0.6431631
101	0x3d22c8d0	0.03974229
102	0x3d35101d	0.04420482
103	0xbe21bc86	-0.15794572
104	0xbdd7d2f1	-0.10538281
105	0x3dcde2c8	0.10053021
106	0x3edb5e26	0.42845267
107	0xbbe7da79	-0.0070756045
108	0x3d1915f0	0.037374437
109	0xbb882586	-0.004154864
110	0x400b5b84	2.1774607
111	0xc006b5a5	-2.1048367
112	0x401bf822	2.4370198
113	0x3fa8e6f4	1.3195481
114	0x3db6332c	0.08896479
115	0xbd8b33a9	-0.06796963
116	0x3eb3a168	0.3508408
117	0xbf2e5b3e	-0.68107975
118	0x3f226746	0.6343883
119	0x3eca7ff5	0.39550748
120	0x3bd69619	0.0065486548
121	0x3d8cf535	0.06882707
122	0x3bd8f97f	0.006621539
123	0x3da47416	0.08029954
124	0xbdca03e1	-0.09864021
125	0x3c8e928b	0.017403862
126	0x3ce8aa71	0.028401585
127	0x3d0a736e	0.03380149
128	0x3d9371ad	0.07199416
129	0x3c9595de	0.018259939
130	0xbce2e2b8	-0.027695999
131	0xbddbd01b	-0.10733052
132	0xbfdafc19	-1.7108184
133	0x3f26ad67	0.6510834
134	0xbf105fed	-0.5639637
135	0xbf337a48	-0.7010846
136	0x3e9b149e	0.30289167
137	0xbea29e92	-0.31761605
138	0x3e776178	0.24158275
139	0x3f400ae1	0.750166
140	0xbf1f1b38	-0.6215091
141	0xbe8b2ed2	-0.2718416
142	0xbcbf7133	-0.023369407
143	0x3dd850a4	0.10562256
144	0xbda00ea3	-0.07815292
145	0x3e36959c	0.17830509
146	0xbb021f67	-0.0019855143
147	0xbc20ae5a	-0.009807194
148	0xbceb8f64	-0.028754897
149	0x3e0dc093	0.13842992
150	0x3ba6402e	0.005073569
151	0xbb249a84	-0.0025116513
152	0x3bcb77df	0.006209358
153	0x3da08c07	0.07839208
154	0x3f9aec8d	1.210344
155	0xbe098a2c	-0.13431615
156	0xbf301281	-0.68778235
157	0x3f06fc3b	0.52728623
158	0x3f81bd73	1.013594
159	0x3e8c9e03	0.27464303
160	0xbd13ad75	-0.036054093
161	0xbd5ae67b	-0.05344246
162	0x3b9ad5a3	0.0047251745
163	0x3d5f7e8f	0.054564055
164	0x3c6ab0b1	0.014324353
165	0x3d2bb714	0.041922644
166	0x3dcbee37	0.09957545
167	0x3f04e52f	0.51912206
168	0x3e8e8c97	0.27841637
169	0xbb90ac70	-0.0044150874
170	0x3d9eb8f2	0.07750119
171	0xbb04f7aa	-0.002028922
172	0xbd61fbb6	-0.05517169
173	0x3d6fa080	0.058502674
174	0xbd2c0f40	-0.04200673
175	0xbe63b2b8	-0.22236145
176	0xbfcb52bd	-1.5884625
177	0x3e5ea1ea	0.21741453
178	0x3f89ee95	1.0775934
179	0x400b64c8	2.1780262
180	0xbe8c97a1	-0.27459434
181	0xbd5aabff	-0.053386685
182	0x3ec8d5c6	0.39225596
183	0x3e652adc	0.22379631
184	0xbda64195	-0.081179775
185	0xbe0a3fd3	-0.1350091
186	0x3d44c336	0.04803773
187	0xbd5e8115	-0.05432232
188	0x3b2e98c8	0.0026641358
189	0xbc886519	-0.01664977
190	0xbca5e036	-0.020248514
191	0xbc4af937	-0.012388519
192	0x3d1b455e	0.03790795
193	0x3b1a7317	0.0023567134
194	0x3f1c2d39	0.61006504
195	0x3e2d626b	0.16932075
196	0xbf52d4cf	-0.8235597
197	0xbfd67a88	-1.6756144
198	0xbf25bd7c	-0.64742255
199	0x40831506	4.0963163
200	0xc04bb561	-3.1829455
201	0xbfa57bad	-1.2928368
202	0xbe22dd21	-0.15904666
203	0xbefd85a3	-0.4951602
204	0x3eb386c3	0.35063753
205	0x3f822b95	1.016955
206	0xbf5bd1f3	-0.8586723
207	0xbebded9a	-0.37095338
208	0xbcaccd0b	-0.021093866
209	0x3d2489de	0.040170543
210	0x3bfa1024	0.0076313186
211	0x3d0a443b	0.033756476
212	0xbaa0fc27	-0.0012282179
213	0x3d0baf32	0.034102626
214	0xbdacc333	-0.08435669
215	0xbc8b9bb2	-0.017042015
216	0x3e4a3123	0.19745307
217	0xbcc3bdb9	-0.023894178
218	0x3ce6341b	0.028101018
219	0x3c8ba3f1	0.017045947
220	0xc00d2326	-2.2052703
221	0xbfe86405	-1.8155524
222	0x3f736eb5	0.950908
223	0x3f773e3a	0.96579325
224	0xbd3b7b68	-0.045771986
225	0x3e2d7add	0.169414
226	0xbe043edd	-0.12914605
227	0xbeebb4c7	-0.4603636
228	0x3eb9a080	0.36255264
229	0x3e256c0a	0.16154495
230	0x3cc7e2c2	0.024400119
231	0xbe11a3c1	-0.14222623
232	0x3da6c7a0	0.08143544
233	0xbf6a7edc	-0.9159982
234	0xbf51a3f0	-0.81890774
235	0x3c921322	0.017831389
236	0xbf03bd89	-0.5146108
237	0x3e7a141c	0.24421734
238	0x3e73a156	0.23792014
239	0xbc7f3867	-0.015577412
240	0xbd41a145	-0.04727294
241	0xbca82633	-0.020526027
242	0x3e595411	0.21223475
243	0x3f47e952	0.78090394
244	0xbf7542a6	-0.9580482
245	0x3e46c6f5	0.19411834
246	0x3e8c02c0	0.27345848
247	0x3e8b0c8e	0.27158016
248	0xbea43beb	-0.32076964
249	0x3f5e69e7	0.86880344
250	0xbf332ea5	-0.6999305
251	0xbeab1533	-0.3341461
252	0xbdbb3454	-0.0914084
253	0xbd7f47ea	-0.062324442
254	0x3d2770ae	0.040878944
255	0x3cc7d878	0.024395213

critic.qf0.0.bias f4 [128]
0	0xbeec2e8d	-0.46129265
1	0xbf779944	-0.9671824
2	0xbf992766	-1.1965148
3	0xbe97ff9a	-0.29687196
4	0xc011a1c2	-2.275498
5	0x3fa220f6	1.2666309
6	0x3ddc0c14	0.10744491
7	0x40152f92	2.3310285
8	0xbf9751ec	-1.1821876
9	0xbf35beaa	-0.70994055
10	0xbf970cda	-1.1800797
11	0xbd1e3306	-0.03862288
12	0xbed077ca	-0.40716392
13	0xbf11d0fb	-0.56959504
14	0xbf56fe3c	-0.8398168
15	0x3f870029	1.0546924
16	0xbf93a9c4	-1.1536183
17	0xbfbf0877	-1.4924458
18	0x3f8e06ef	1.1095866
19	0xbee14545	-0.4399816
20	0xc045b653	-3.0892532
21	0xc0255d9a	-2.583838
22	0x3fb872ca	1.4410031
23	0x40531778	3.2983074
24	0xc01bebba	-2.4362626
25	0xbf86871e	-1.0509984
26	0x3f47d292	0.7805568
27	0x40541cb7	3.3142526
28	0x408ec2f2	4.461297
29	0xc062a02a	-3.5410256
30	0x3f9ade4e	1.2099092
31	0xc0030ee6	-2.0477843
32	0x3fd612ea	1.6724522
33	0x3f9fbeba	1.248008
34	0x3f1a87d1	0.6036349
35	0xbfab5288	-1.3384562
36	0x3fe1ea9a	1.764972
37	0xbfb8ed15	-1.4447352
38	0xc04e95bf	-3.2278898
39	0x3fdfdd8a	1.7489483
40	0xbf1b5149	-0.60670906
41	0xc040ee92	-3.0145612
42	0xbfc44166	-1.5332458
43	0xc01d7805	-2.4604504
44	0xc023a14d	-2.55672
45	0xbe1f414e	-0.15552256
46	0x400c57e6	2.192865
47	0xbf3350eb	-0.70045346
48	0x402e7f39	2.726515
49	0x40103fcf	2.2538946
50	0x3f840b2b	1.0315908
51	0xbf79bd81	-0.97554785
52	0xc024bdbe	-2.574081
53	0x3f87ea24	1.0618329
54	0x3f50608e	0.8139733
55	0xbf773825	-0.96570045
56	0xc014c66a	-2.3246102
57	0xc07b2f81	-3.9247744
58	0x40693362	3.6437612
59	0xbf3b726e	-0.7322148
60	0xbf62c1e2	-0.8857709
61	0x3cf229d6	0.029560965
62	0x3ea8a77d	0.32940283
63	0xbfa1e6ea	-1.2648594
64	0x405daa6a	3.4635262
65	0xbf8a04d5	-1.0782725
66	0xc07bdf93	-3.935521
67	0x3f01101c	0.50415206
68	0x400e12b1	2.2198908
69	0x3f1ecd15	0.6203168
70	0xbff9e1f8	-1.9522085
71	0x3f278462	0.65436375
72	0xc07143ad	-3.7697556
73	0xbfcbeaed	-1.5931069
74	0xc04676e9	-3.1010077
75	0xc0198e8a	-2.399325
76	0x3fa22e9e	1.2670476
77	0xc047cc1e	-3.1218333
78	0xbf6caf9e	-0.9245547
79	0x3fd89774	1.692122
80	0x3fabad86	1.341233
81	0x3f9d6885	1.2297522
82	0x3f6dbcb0	0.9286604
83	0xbe6bb821	-0.23019458
84	0x40842a81	4.1301885
85	0xbfa1a6b4	-1.2628999
86	0xbe4267c4	-0.18984896
87	0x3ffce177	1.9756306
88	0xbff2ec4d	-1.8978363
89	0x402e6498	2.7248898
90	0xbfc663b8	-1.5499182
91	0xc0168e12	-2.3524213
92	0xc060bf1d	-3.5116646
93	0x40756021	3.8339922
94	0x3f786018	0.9702163
95	0xbea5b3c1	-0.32363704
96	0xc05da85c	-3.4634008
97	0x407ed633	3.9818237
98	0xbfe9ed1d	-1.8275486
99	0x3f6ebd95	0.9325803
100	0xbff7e3ac	-1.9366355
101	0xbfdd20a5	-1.7275587
102	0x3e9647f5	0.29351774
103	0x3e9648ed	0.29352513
104	0x3fd61492	1.6725028
105	0xc0147d2f	-2.3201406
106	0x3fb6c45b	1.4278673
107	0x3fac9c2a	1.3485157
108	0xbef2b623	-0.47404584
109	0xbec2afd6	-0.38024777
110	0x4062282e	3.5337024
111	0xc07fb12b	-3.9951885
112	0x3e6c694a	0.2308704
113	0xbe013149	-0.12616457
114	0xc079e377	-3.9045084
115	0x4018c10f	2.3867834
116	0xc006101b	-2.094733
117	0xbee4b645	-0.4467031
118	0x3f92b23a	1.146064
119	0x3f954e3b	1.1664499
120	0xbf48df2b	-0.7846553
121	0x3f776f6b	0.96654385
122	0xc02f6d7e	-2.7410579
123	0x403a2c92	2.9089704
124	0x3fea52ab	1.8306478
125	0x404f28ef	3.2368734
126	0xbfe57d51	-1.7928869
127	0xbfc98a05	-1.5745245

critic.qf0.2.weight f4 [128, 128]
0	0x3ec01977	0.37519428
1	0x3f4fbbed	0.81146127
2	0x3c94e151	0.018173845
3	0x3f3cad90	0.73702335
4	0xbd86dfc0	-0.06585646
5	0x3ee158a1	0.4401293
6	0xbf676980	-0.90395355
7	0x3e874853	0.26422366
8	0xbcf0be68	-0.029387668
9	0x3dfa10ab	0.122102104
10	0xbea1a618	-0.31572032
11	0x3e559831	0.20858838
12	0xbe52b29b	-0.20575945
13	0x3d04d621	0.03243077
14	0x3f2282d3	0.6348087
15	0x3debfa72	0.11522378
16	0x3f01d301	0.5071259
17	0x3f2afa4e	0.66788185
18	0xbe662001	-0.22473146
19	0xbef0e2ab	-0.47047934
20	0x3ed2eda7	0.4119694
21	0xbe6dcb48	-0.23222077
22	0x3f5ed943	0.87050265
23	0xbf500630	-0.8125944
24	0x3ee5873e	0.44829744
25	0xbdce2f96	-0.1006767
26	0xbdc64ec9	-0.09682996
27	0xbf05bd1c	-0.52241683
28	0xbe0f9aca	-0.14023891
29	0x3e6175c2	0.22017577
30	0xbd34ac49	-0.044109616
31	0x3df6ea35	0.1205639
32	0x3f9f893d	1.2463757
33	0x3ed75cc1	0.42062953
34	0xbd66b679	-0.056326363
35	0xbdcf1755	-0.10111872
36	0x3dfcf283	0.12350943
37	0xbf3c91e9	-0.7366014
38	0x3f9292dd	1.1451069
39	0x3ec6974a	0.387873
40	0xbe17f86b	-0.14840858
41	0xbec6417b	-0.38721833
42	0x3c9042a2	0.017609898
43	0x3f38ea77	0.72232765
44	0xbe2da0cf	-0.16955875
45	0x3e85c6a0	0.261281
46	0xbeb442c4	-0.35207188
47	0x3e830313	0.25588283
48	0xbe21137c	-0.15730089
49	0xbf852e4b	-1.0404752
50	0x3f54a6b8	0.8306689
51	0xbf25ae34	-0.6471894
52	0xbdb1f81b	-0.086899005
53	0xbe072c22	-0.13200429
54	0x3cd1e823	0.025623387
55	0x3e71647a	0.23573485
56	0x3eb8fbb8	0.36129546
57	0xbe683531	-0.22676541
58	0xbfa5ae4c	-1.2943816
59	0xbe10a737	-0.14126287
60	0xbd4e4eb2	-0.05036802
61	0x3e214da0	0.15752268
62	0x3f85928d	1.0435349
63	0x3f69ac41	0.91278464
64	0xbed74cf1	-0.4205089
65	0x3c9851f2	0.018593762
66	0x3fab804b	1.3398527
67	0x3e1752a1	0.14777614
68	0xbef102dd	-0.47072497
69	0x3ec5977c	0.38592136
70	0xbd048ad7	-0.03235897
71	0xbee9619b	-0.4558228
72	0x3f326d6b	0.6969821
73	0x3f123252	0.5710803
74	0xbef8b687	-0.48576757
75	0x3d296a87	0.041361358
76	0x3e639bd0	0.22227407
77	0xbfd3d769	-1.6550113
78	0xbdef5ff0	-0.116882205
79	0xbf4988dc	-0.78724456
80	0xbf150dfa	-0.5822445
81	0x3eda0d90	0.42588472
82	0x3edeb4ac	0.43497217
83	0x3cbb9e71	0.0229027
84	0x3f312340	0.6919441
85	0x3ea3ca52	0.31990296
86	0x3cf8ef11	0.030387433
87	0x3db48d92	0.08816065
88	0x3f4c4a14	0.79800534
89	0xbe089eb5	-0.13341792
90	0x3de89570	0.11356628
91	0xbeb6cff8	-0.35705543
92	0x3f9996d6	1.1999156
93	0xbeb266e6	-0.3484413
94	0xbe93a1f1	-0.2883449
95	0x3e195f52	0.14977768
96	0x3e30d5e1	0.17269088
97	0x3e2bd1ad	0.16779204
98	0x3b9072b4	0.004408205
99	0x3f932af9	1.1497489
100	0x3fa791ac	1.309133
101	0xbe8bbb8d	-0.27291527
102	0x3b07abe1	0.0020701813
103	0x3c7d0180	0.015442252
104	0xbf0d0214	-0.55081296
105	0x3c01f5d8	0.007932149
106	0x3ee6a16d	0.45045033
107	0xbdd49672	-0.10380258
108	0x3da7107d	0.08157442
109	0x3c8a484c	0.016880177
110	0x3d9a8977	0.075457506
111	0xbe8c8827	-0.27447626
112	0x3e345cf8	0.1761359
113	0x3f72f448	0.94903994
114	0xbfcd542d	-1.6041313
115	0x3cd0bc49	0.025480406
116	0x3a97793f	0.001155652
117	0xbd887e56	-0.06664722
118	0xbe474d0a	-0.19462982
119	0x3ea29bfc	0.31759632
120	0xbabb8b38	-0.0014308458
121	0xbf658419	-0.8965469
122	0x3f4ff0cb	0.81226796
123	0x3e9d9325	0.30776325
124	0x3ede28a3	0.43390378
125	0xbf7349a4	-0.9503424
126	0x3ec8e5cc	0.3923782
127	0x3d09932b	0.033587616
128	0x3ca3b123	0.019981926
129	0xbf431643	-0.76205844
130	0x3dcff8d1	0.1015488
131	0x3d64b6ad	0.055838276
132	0xbc8ccdf0	-0.017188042
133	0xbec7d155	-0.39026895
134	0xbed8ef7e	-0.42370218
135	0x3e9b18f6	0.3029248
136	0xbef41111	-0.4766927
137	0xbfeca33a	-1.8487313
138	0xbf921e1d	-1.141544
139	0x3f9481be	1.1602094
140	0xbe22d3f4	-0.15901166
141	0x3f582497	0.8443083
142	0xbd92eb9e	-0.07173847
143	0x3e52840e	0.20558187
144	0xbe8df71c	-0.27727592
145	0xbe2ae61b	-0.16689341
146	0xbf211f4e	-0.6293839
147	0x3ed7a59e	0.42118543
148	0xbb295b49	-0.0025841764
149	0x3f79c816	0.9757093
150	0xbe40e701	-0.18838121
151	0xbf8448bd	-1.0334698
152	0x3f637acb	0.8885924
153	0x3e9cf589	0.30656078
154	0x3e79ab48	0.24381745
155	0xbeee46ff	-0.4653854
156	0x3f0421a8	0.51613855
157	0x3eb89c08	0.36056542
158	0xbf3e450a	-0.74324095
159	0x3f0b0c23	0.54315394
160	0x3de6ab60	0.11263156
161	0xbe7e7bb9	-0.24851884
162	0x3ef4fc3c	0.4784869
163	0x3ea711d2	0.32630783
164	0xbf5d21a3	-0.8637945
165	0xbe59ad35	-0.2125748
166	0xbf3abc69	-0.7294374
167	0x3d77e688	0.060522586
168	0xbde3ce93	-0.11123385
169	0xbeba3169	-0.36365822
170	0x3dae6cf2	0.085168734
171	0xbf4dc245	-0.80374557
172	0x3ec3fe70	0.38280058
173	0xbf3eb3bd	-0.7449301
174	0xbde167a8	-0.11006099
175	0xbed52f6a	-0.41637737
176	0xbec7a615	-0.38993898
177	0x3f3abd1d	0.72944814
178	0xbf170006	-0.5898441
179	0x3ea8e924	0.32990372
180	0x3f546bcd	0.8297699
181	0xbeb340bd	-0.3501033
182	0x3e9811c2	0.29701048
183	0x3f13ff68	0.57811594
184	0x3d954ae8	0.07289678
185	0xbd7b8525	-0.061406273
186	0x3fab586b	1.3386358
187	0x3f529736	0.8226198
188	0xbf9d4484	-1.2286534
189	0xbea970db	-0.33093914
190	0x3f464758	0.7745261
191	0x3e8a37e3	0.26995763
192	0x3e82cfad	0.2554907
193	0x3d9901bc	0.07471034
194	0xbd0af0b9	-0.033920977
195	0x3d19bccf	0.037533578
196	0xbf07cc5c	-0.530462
197	0xbe421f61	-0.18957283
198	0x3e980cc6	0.29697245
199	0xbf04a431	-0.51813036
200	0xbec10813	-0.37701473
201	0xbdf5d1d8	-0.12002915
202	0x3ed8c1d6	0.42335385
203	0xbf93dff3	-1.1552719
204	0xbed36b7c	-0.41292942
205	0x3f98343d	1.1890942
206	0xbebfe9ed	-0.3748316
207	0xbf82c473	-1.0216202
208	0xbf9557d0	-1.1667423
209	0xbdd1664c	-0.1022459
210	0xbef93426	-0.486726
211	0xbe7eab50	-0.24870038
212	0x3e6c6270	0.23084426
213	0xbe2fd361	-0.17170478
214	0xbdb340de	-0.08752607
215	0xbe50a9d1	-0.2037728
216	0xbfb5e67f	-1.4210967
217	0xbf280c51	-0.65643793
218	0xbe39b480	-0.18135262
219	0x3ef476dc	0.47746933
220	0xbea2fa93	-0.31831798
221	0x3d96576c	0.07340893
222	0xbee7314f	-0.45154807
223	0xbf1bdf3d	-0.6088751
224	0xbf80ac01	-1.0052491
225	0xbf83f8e4	-1.031033
226	0xbcbab752	-0.022792492
227	0x3e92f6e5	0.2870399
228	0xbe9c94db	-0.30582318
229	0xbe7f9716	-0.24959978
230	0x3ac67840	0.0015142038
231	0x3efee482	0.49783713
232	0x3facaa4b	1.3489469
233	0x3eadff10	0.3398366
234	0x3f3c053f	0.73445505
235	0xbd9e4479	-0.07727904
236	0xbd68b726	-0.05681529
237	0xbf203ace	-0.6258973
238	0xbed178d9	-0.40912512
239	0xbe4f4bde	-0.20243785
240	0xbf146be4	-0.5797713
241	0x3eb755f4	0.35807765
242	0x3f753623	0.9578573
243	0xbe2d1f01	-0.16906358
244	0xbe9c8814	-0.3057257
245	0x3f3ac7d9	0.72961193
246	0x3f15cc9f	0.5851535
247	0x3e868e48	0.26280427
248	0xbe391afe	-0.18076703
249	0x3f50e5e6	0.816008
250	0x3e47226c	0.19446725
251	0xbef79dd0	-0.4836259
252	0xbf04d8a1	-0.5189305
253	0x3e2f94ca	0.17146602
254	0x3ec354e1	0.38150695
255	0x3f451f09	0.7700048
